### DSS ###
name: "DSS"
input: "data"
input_dim: 1
input_dim: 3
input_dim: 500
input_dim: 500

# ------------------------ conv1 -----------------------------
layer {
    bottom: "data"
    top: "conv1"
    name: "conv1"
    type: "Convolution"
    convolution_param {
        num_output: 64
        kernel_size: 7
        pad: 3
        stride: 2
        bias_term: false
    }
    param {
        lr_mult: 1.0
    }
}

layer {
    bottom: "conv1"
    top: "conv1"
    name: "bn_conv1"
    type: "BatchNorm"
    batch_norm_param {
        use_global_stats: true
    }
    param {
        lr_mult: 0.0
        decay_mult: 0.0
    }
    param {
        lr_mult: 0.0
        decay_mult: 0.0
    }
    param {
        lr_mult: 0.0
        decay_mult: 0.0
    }
}

layer {
    bottom: "conv1"
    top: "conv1"
    name: "scale_conv1"
    type: "Scale"
    scale_param {
        bias_term: true
    }
    param {
        lr_mult: 0.0
        decay_mult: 0.0
    }
    param {
        lr_mult: 0.0
        decay_mult: 0.0
    }
}

layer {
    top: "conv1"
    bottom: "conv1"
    name: "conv1_relu"
    type: "ReLU"
}

layer {
    bottom: "conv1"
    top: "pool1"
    name: "pool1"
    type: "Pooling"
    pooling_param {
        kernel_size: 3
        stride: 2
        pool: MAX
    }
}

layer {
    bottom: "pool1"
    top: "res2a_branch1"
    name: "res2a_branch1"
    type: "Convolution"
    convolution_param {
        num_output: 256
        kernel_size: 1
        pad: 0
        stride: 1
        bias_term: false
    }
    param {
        lr_mult: 1.0
    }
}

layer {
    bottom: "res2a_branch1"
    top: "res2a_branch1"
    name: "bn2a_branch1"
    type: "BatchNorm"
    batch_norm_param {
        use_global_stats: true
    }
    param {
        lr_mult: 0.0
        decay_mult: 0.0
    }
    param {
        lr_mult: 0.0
        decay_mult: 0.0
    }
    param {
        lr_mult: 0.0
        decay_mult: 0.0
    }
}

layer {
    bottom: "res2a_branch1"
    top: "res2a_branch1"
    name: "scale2a_branch1"
    type: "Scale"
    scale_param {
        bias_term: true
    }
    param {
        lr_mult: 0.0
        decay_mult: 0.0
    }
    param {
        lr_mult: 0.0
        decay_mult: 0.0
    }
}

layer {
    bottom: "pool1"
    top: "res2a_branch2a"
    name: "res2a_branch2a"
    type: "Convolution"
    convolution_param {
        num_output: 64
        kernel_size: 1
        pad: 0
        stride: 1
        bias_term: false
    }
    param {
        lr_mult: 1.0
    }
}

layer {
    bottom: "res2a_branch2a"
    top: "res2a_branch2a"
    name: "bn2a_branch2a"
    type: "BatchNorm"
    batch_norm_param {
        use_global_stats: true
    }
    param {
        lr_mult: 0.0
        decay_mult: 0.0
    }
    param {
        lr_mult: 0.0
        decay_mult: 0.0
    }
    param {
        lr_mult: 0.0
        decay_mult: 0.0
    }
}

layer {
    bottom: "res2a_branch2a"
    top: "res2a_branch2a"
    name: "scale2a_branch2a"
    type: "Scale"
    scale_param {
        bias_term: true
    }
    param {
        lr_mult: 0.0
        decay_mult: 0.0
    }
    param {
        lr_mult: 0.0
        decay_mult: 0.0
    }
}

layer {
    top: "res2a_branch2a"
    bottom: "res2a_branch2a"
    name: "res2a_branch2a_relu"
    type: "ReLU"
}

layer {
    bottom: "res2a_branch2a"
    top: "res2a_branch2b"
    name: "res2a_branch2b"
    type: "Convolution"
    convolution_param {
        num_output: 64
        kernel_size: 3
        pad: 1
        stride: 1
        bias_term: false
    }
    param {
        lr_mult: 1.0
    }
}

layer {
    bottom: "res2a_branch2b"
    top: "res2a_branch2b"
    name: "bn2a_branch2b"
    type: "BatchNorm"
    batch_norm_param {
        use_global_stats: true
    }
    param {
        lr_mult: 0.0
        decay_mult: 0.0
    }
    param {
        lr_mult: 0.0
        decay_mult: 0.0
    }
    param {
        lr_mult: 0.0
        decay_mult: 0.0
    }
}

layer {
    bottom: "res2a_branch2b"
    top: "res2a_branch2b"
    name: "scale2a_branch2b"
    type: "Scale"
    scale_param {
        bias_term: true
    }
    param {
        lr_mult: 0.0
        decay_mult: 0.0
    }
    param {
        lr_mult: 0.0
        decay_mult: 0.0
    }
}

layer {
    top: "res2a_branch2b"
    bottom: "res2a_branch2b"
    name: "res2a_branch2b_relu"
    type: "ReLU"
}

layer {
    bottom: "res2a_branch2b"
    top: "res2a_branch2c"
    name: "res2a_branch2c"
    type: "Convolution"
    convolution_param {
        num_output: 256
        kernel_size: 1
        pad: 0
        stride: 1
        bias_term: false
    }
    param {
        lr_mult: 1.0
    }
}

layer {
    bottom: "res2a_branch2c"
    top: "res2a_branch2c"
    name: "bn2a_branch2c"
    type: "BatchNorm"
    batch_norm_param {
        use_global_stats: true
    }
    param {
        lr_mult: 0.0
        decay_mult: 0.0
    }
    param {
        lr_mult: 0.0
        decay_mult: 0.0
    }
    param {
        lr_mult: 0.0
        decay_mult: 0.0
    }
}

layer {
    bottom: "res2a_branch2c"
    top: "res2a_branch2c"
    name: "scale2a_branch2c"
    type: "Scale"
    scale_param {
        bias_term: true
    }
    param {
        lr_mult: 0.0
        decay_mult: 0.0
    }
    param {
        lr_mult: 0.0
        decay_mult: 0.0
    }
}

layer {
    bottom: "res2a_branch1"
    bottom: "res2a_branch2c"
    top: "res2a"
    name: "res2a"
    type: "Eltwise"
}

layer {
    bottom: "res2a"
    top: "res2a"
    name: "res2a_relu"
    type: "ReLU"
}

layer {
    bottom: "res2a"
    top: "res2b_branch2a"
    name: "res2b_branch2a"
    type: "Convolution"
    convolution_param {
        num_output: 64
        kernel_size: 1
        pad: 0
        stride: 1
        bias_term: false
    }
    param {
        lr_mult: 1.0
    }
}

layer {
    bottom: "res2b_branch2a"
    top: "res2b_branch2a"
    name: "bn2b_branch2a"
    type: "BatchNorm"
    batch_norm_param {
        use_global_stats: true
    }
    param {
        lr_mult: 0.0
        decay_mult: 0.0
    }
    param {
        lr_mult: 0.0
        decay_mult: 0.0
    }
    param {
        lr_mult: 0.0
        decay_mult: 0.0
    }
}

layer {
    bottom: "res2b_branch2a"
    top: "res2b_branch2a"
    name: "scale2b_branch2a"
    type: "Scale"
    scale_param {
        bias_term: true
    }
    param {
        lr_mult: 0.0
        decay_mult: 0.0
    }
    param {
        lr_mult: 0.0
        decay_mult: 0.0
    }
}

layer {
    top: "res2b_branch2a"
    bottom: "res2b_branch2a"
    name: "res2b_branch2a_relu"
    type: "ReLU"
}

layer {
    bottom: "res2b_branch2a"
    top: "res2b_branch2b"
    name: "res2b_branch2b"
    type: "Convolution"
    convolution_param {
        num_output: 64
        kernel_size: 3
        pad: 1
        stride: 1
        bias_term: false
    }
    param {
        lr_mult: 1.0
    }
}

layer {
    bottom: "res2b_branch2b"
    top: "res2b_branch2b"
    name: "bn2b_branch2b"
    type: "BatchNorm"
    batch_norm_param {
        use_global_stats: true
    }
    param {
        lr_mult: 0.0
        decay_mult: 0.0
    }
    param {
        lr_mult: 0.0
        decay_mult: 0.0
    }
    param {
        lr_mult: 0.0
        decay_mult: 0.0
    }
}

layer {
    bottom: "res2b_branch2b"
    top: "res2b_branch2b"
    name: "scale2b_branch2b"
    type: "Scale"
    scale_param {
        bias_term: true
    }
    param {
        lr_mult: 0.0
        decay_mult: 0.0
    }
    param {
        lr_mult: 0.0
        decay_mult: 0.0
    }
}

layer {
    top: "res2b_branch2b"
    bottom: "res2b_branch2b"
    name: "res2b_branch2b_relu"
    type: "ReLU"
}

layer {
    bottom: "res2b_branch2b"
    top: "res2b_branch2c"
    name: "res2b_branch2c"
    type: "Convolution"
    convolution_param {
        num_output: 256
        kernel_size: 1
        pad: 0
        stride: 1
        bias_term: false
    }
    param {
        lr_mult: 1.0
    }
}

layer {
    bottom: "res2b_branch2c"
    top: "res2b_branch2c"
    name: "bn2b_branch2c"
    type: "BatchNorm"
    batch_norm_param {
        use_global_stats: true
    }
    param {
        lr_mult: 0.0
        decay_mult: 0.0
    }
    param {
        lr_mult: 0.0
        decay_mult: 0.0
    }
    param {
        lr_mult: 0.0
        decay_mult: 0.0
    }
}

layer {
    bottom: "res2b_branch2c"
    top: "res2b_branch2c"
    name: "scale2b_branch2c"
    type: "Scale"
    scale_param {
        bias_term: true
    }
    param {
        lr_mult: 0.0
        decay_mult: 0.0
    }
    param {
        lr_mult: 0.0
        decay_mult: 0.0
    }
}

layer {
    bottom: "res2a"
    bottom: "res2b_branch2c"
    top: "res2b"
    name: "res2b"
    type: "Eltwise"
}

layer {
    bottom: "res2b"
    top: "res2b"
    name: "res2b_relu"
    type: "ReLU"
}

layer {
    bottom: "res2b"
    top: "res2c_branch2a"
    name: "res2c_branch2a"
    type: "Convolution"
    convolution_param {
        num_output: 64
        kernel_size: 1
        pad: 0
        stride: 1
        bias_term: false
    }
    param {
        lr_mult: 1.0
    }
}

layer {
    bottom: "res2c_branch2a"
    top: "res2c_branch2a"
    name: "bn2c_branch2a"
    type: "BatchNorm"
    batch_norm_param {
        use_global_stats: true
    }
    param {
        lr_mult: 0.0
        decay_mult: 0.0
    }
    param {
        lr_mult: 0.0
        decay_mult: 0.0
    }
    param {
        lr_mult: 0.0
        decay_mult: 0.0
    }
}

layer {
    bottom: "res2c_branch2a"
    top: "res2c_branch2a"
    name: "scale2c_branch2a"
    type: "Scale"
    scale_param {
        bias_term: true
    }
    param {
        lr_mult: 0.0
        decay_mult: 0.0
    }
    param {
        lr_mult: 0.0
        decay_mult: 0.0
    }
}

layer {
    top: "res2c_branch2a"
    bottom: "res2c_branch2a"
    name: "res2c_branch2a_relu"
    type: "ReLU"
}

layer {
    bottom: "res2c_branch2a"
    top: "res2c_branch2b"
    name: "res2c_branch2b"
    type: "Convolution"
    convolution_param {
        num_output: 64
        kernel_size: 3
        pad: 1
        stride: 1
        bias_term: false
    }
    param {
        lr_mult: 1.0
    }
}

layer {
    bottom: "res2c_branch2b"
    top: "res2c_branch2b"
    name: "bn2c_branch2b"
    type: "BatchNorm"
    batch_norm_param {
        use_global_stats: true
    }
    param {
        lr_mult: 0.0
        decay_mult: 0.0
    }
    param {
        lr_mult: 0.0
        decay_mult: 0.0
    }
    param {
        lr_mult: 0.0
        decay_mult: 0.0
    }
}

layer {
    bottom: "res2c_branch2b"
    top: "res2c_branch2b"
    name: "scale2c_branch2b"
    type: "Scale"
    scale_param {
        bias_term: true
    }
    param {
        lr_mult: 0.0
        decay_mult: 0.0
    }
    param {
        lr_mult: 0.0
        decay_mult: 0.0
    }
}

layer {
    top: "res2c_branch2b"
    bottom: "res2c_branch2b"
    name: "res2c_branch2b_relu"
    type: "ReLU"
}

layer {
    bottom: "res2c_branch2b"
    top: "res2c_branch2c"
    name: "res2c_branch2c"
    type: "Convolution"
    convolution_param {
        num_output: 256
        kernel_size: 1
        pad: 0
        stride: 1
        bias_term: false
    }
    param {
        lr_mult: 1.0
    }
}

layer {
    bottom: "res2c_branch2c"
    top: "res2c_branch2c"
    name: "bn2c_branch2c"
    type: "BatchNorm"
    batch_norm_param {
        use_global_stats: true
    }
    param {
        lr_mult: 0.0
        decay_mult: 0.0
    }
    param {
        lr_mult: 0.0
        decay_mult: 0.0
    }
    param {
        lr_mult: 0.0
        decay_mult: 0.0
    }
}

layer {
    bottom: "res2c_branch2c"
    top: "res2c_branch2c"
    name: "scale2c_branch2c"
    type: "Scale"
    scale_param {
        bias_term: true
    }
    param {
        lr_mult: 0.0
        decay_mult: 0.0
    }
    param {
        lr_mult: 0.0
        decay_mult: 0.0
    }
}

layer {
    bottom: "res2b"
    bottom: "res2c_branch2c"
    top: "res2c"
    name: "res2c"
    type: "Eltwise"
}

layer {
    bottom: "res2c"
    top: "res2c"
    name: "res2c_relu"
    type: "ReLU"
}

layer {
    bottom: "res2c"
    top: "res3a_branch1"
    name: "res3a_branch1"
    type: "Convolution"
    convolution_param {
        num_output: 512
        kernel_size: 1
        pad: 0
        stride: 2
        bias_term: false
    }
    param {
        lr_mult: 1.0
    }
}

layer {
    bottom: "res3a_branch1"
    top: "res3a_branch1"
    name: "bn3a_branch1"
    type: "BatchNorm"
    batch_norm_param {
        use_global_stats: true
    }
    param {
        lr_mult: 0.0
        decay_mult: 0.0
    }
    param {
        lr_mult: 0.0
        decay_mult: 0.0
    }
    param {
        lr_mult: 0.0
        decay_mult: 0.0
    }
}

layer {
    bottom: "res3a_branch1"
    top: "res3a_branch1"
    name: "scale3a_branch1"
    type: "Scale"
    scale_param {
        bias_term: true
    }
    param {
        lr_mult: 0.0
        decay_mult: 0.0
    }
    param {
        lr_mult: 0.0
        decay_mult: 0.0
    }
}

layer {
    bottom: "res2c"
    top: "res3a_branch2a"
    name: "res3a_branch2a"
    type: "Convolution"
    convolution_param {
        num_output: 128
        kernel_size: 1
        pad: 0
        stride: 2
        bias_term: false
    }
    param {
        lr_mult: 1.0
    }
}

layer {
    bottom: "res3a_branch2a"
    top: "res3a_branch2a"
    name: "bn3a_branch2a"
    type: "BatchNorm"
    batch_norm_param {
        use_global_stats: true
    }
    param {
        lr_mult: 0.0
        decay_mult: 0.0
    }
    param {
        lr_mult: 0.0
        decay_mult: 0.0
    }
    param {
        lr_mult: 0.0
        decay_mult: 0.0
    }
}

layer {
    bottom: "res3a_branch2a"
    top: "res3a_branch2a"
    name: "scale3a_branch2a"
    type: "Scale"
    scale_param {
        bias_term: true
    }
    param {
        lr_mult: 0.0
        decay_mult: 0.0
    }
    param {
        lr_mult: 0.0
        decay_mult: 0.0
    }
}

layer {
    top: "res3a_branch2a"
    bottom: "res3a_branch2a"
    name: "res3a_branch2a_relu"
    type: "ReLU"
}

layer {
    bottom: "res3a_branch2a"
    top: "res3a_branch2b"
    name: "res3a_branch2b"
    type: "Convolution"
    convolution_param {
        num_output: 128
        kernel_size: 3
        pad: 1
        stride: 1
        bias_term: false
    }
    param {
        lr_mult: 1.0
    }
}

layer {
    bottom: "res3a_branch2b"
    top: "res3a_branch2b"
    name: "bn3a_branch2b"
    type: "BatchNorm"
    batch_norm_param {
        use_global_stats: true
    }
    param {
        lr_mult: 0.0
        decay_mult: 0.0
    }
    param {
        lr_mult: 0.0
        decay_mult: 0.0
    }
    param {
        lr_mult: 0.0
        decay_mult: 0.0
    }
}

layer {
    bottom: "res3a_branch2b"
    top: "res3a_branch2b"
    name: "scale3a_branch2b"
    type: "Scale"
    scale_param {
        bias_term: true
    }
    param {
        lr_mult: 0.0
        decay_mult: 0.0
    }
    param {
        lr_mult: 0.0
        decay_mult: 0.0
    }
}

layer {
    top: "res3a_branch2b"
    bottom: "res3a_branch2b"
    name: "res3a_branch2b_relu"
    type: "ReLU"
}

layer {
    bottom: "res3a_branch2b"
    top: "res3a_branch2c"
    name: "res3a_branch2c"
    type: "Convolution"
    convolution_param {
        num_output: 512
        kernel_size: 1
        pad: 0
        stride: 1
        bias_term: false
    }
    param {
        lr_mult: 1.0
    }
}

layer {
    bottom: "res3a_branch2c"
    top: "res3a_branch2c"
    name: "bn3a_branch2c"
    type: "BatchNorm"
    batch_norm_param {
        use_global_stats: true
    }
    param {
        lr_mult: 0.0
        decay_mult: 0.0
    }
    param {
        lr_mult: 0.0
        decay_mult: 0.0
    }
    param {
        lr_mult: 0.0
        decay_mult: 0.0
    }
}

layer {
    bottom: "res3a_branch2c"
    top: "res3a_branch2c"
    name: "scale3a_branch2c"
    type: "Scale"
    scale_param {
        bias_term: true
    }
    param {
        lr_mult: 0.0
        decay_mult: 0.0
    }
    param {
        lr_mult: 0.0
        decay_mult: 0.0
    }
}

layer {
    bottom: "res3a_branch1"
    bottom: "res3a_branch2c"
    top: "res3a"
    name: "res3a"
    type: "Eltwise"
}

layer {
    bottom: "res3a"
    top: "res3a"
    name: "res3a_relu"
    type: "ReLU"
}

layer {
    bottom: "res3a"
    top: "res3b1_branch2a"
    name: "res3b1_branch2a"
    type: "Convolution"
    convolution_param {
        num_output: 128
        kernel_size: 1
        pad: 0
        stride: 1
        bias_term: false
    }
    param {
        lr_mult: 1.0
    }
}

layer {
    bottom: "res3b1_branch2a"
    top: "res3b1_branch2a"
    name: "bn3b1_branch2a"
    type: "BatchNorm"
    batch_norm_param {
        use_global_stats: true
    }
    param {
        lr_mult: 0.0
        decay_mult: 0.0
    }
    param {
        lr_mult: 0.0
        decay_mult: 0.0
    }
    param {
        lr_mult: 0.0
        decay_mult: 0.0
    }
}

layer {
    bottom: "res3b1_branch2a"
    top: "res3b1_branch2a"
    name: "scale3b1_branch2a"
    type: "Scale"
    scale_param {
        bias_term: true
    }
    param {
        lr_mult: 0.0
        decay_mult: 0.0
    }
    param {
        lr_mult: 0.0
        decay_mult: 0.0
    }
}

layer {
    top: "res3b1_branch2a"
    bottom: "res3b1_branch2a"
    name: "res3b1_branch2a_relu"
    type: "ReLU"
}

layer {
    bottom: "res3b1_branch2a"
    top: "res3b1_branch2b"
    name: "res3b1_branch2b"
    type: "Convolution"
    convolution_param {
        num_output: 128
        kernel_size: 3
        pad: 1
        stride: 1
        bias_term: false
    }
    param {
        lr_mult: 1.0
    }
}

layer {
    bottom: "res3b1_branch2b"
    top: "res3b1_branch2b"
    name: "bn3b1_branch2b"
    type: "BatchNorm"
    batch_norm_param {
        use_global_stats: true
    }
    param {
        lr_mult: 0.0
        decay_mult: 0.0
    }
    param {
        lr_mult: 0.0
        decay_mult: 0.0
    }
    param {
        lr_mult: 0.0
        decay_mult: 0.0
    }
}

layer {
    bottom: "res3b1_branch2b"
    top: "res3b1_branch2b"
    name: "scale3b1_branch2b"
    type: "Scale"
    scale_param {
        bias_term: true
    }
    param {
        lr_mult: 0.0
        decay_mult: 0.0
    }
    param {
        lr_mult: 0.0
        decay_mult: 0.0
    }
}

layer {
    top: "res3b1_branch2b"
    bottom: "res3b1_branch2b"
    name: "res3b1_branch2b_relu"
    type: "ReLU"
}

layer {
    bottom: "res3b1_branch2b"
    top: "res3b1_branch2c"
    name: "res3b1_branch2c"
    type: "Convolution"
    convolution_param {
        num_output: 512
        kernel_size: 1
        pad: 0
        stride: 1
        bias_term: false
    }
    param {
        lr_mult: 1.0
    }
}

layer {
    bottom: "res3b1_branch2c"
    top: "res3b1_branch2c"
    name: "bn3b1_branch2c"
    type: "BatchNorm"
    batch_norm_param {
        use_global_stats: true
    }
    param {
        lr_mult: 0.0
        decay_mult: 0.0
    }
    param {
        lr_mult: 0.0
        decay_mult: 0.0
    }
    param {
        lr_mult: 0.0
        decay_mult: 0.0
    }
}

layer {
    bottom: "res3b1_branch2c"
    top: "res3b1_branch2c"
    name: "scale3b1_branch2c"
    type: "Scale"
    scale_param {
        bias_term: true
    }
    param {
        lr_mult: 0.0
        decay_mult: 0.0
    }
    param {
        lr_mult: 0.0
        decay_mult: 0.0
    }
}

layer {
    bottom: "res3a"
    bottom: "res3b1_branch2c"
    top: "res3b1"
    name: "res3b1"
    type: "Eltwise"
}

layer {
    bottom: "res3b1"
    top: "res3b1"
    name: "res3b1_relu"
    type: "ReLU"
}

layer {
    bottom: "res3b1"
    top: "res3b2_branch2a"
    name: "res3b2_branch2a"
    type: "Convolution"
    convolution_param {
        num_output: 128
        kernel_size: 1
        pad: 0
        stride: 1
        bias_term: false
    }
    param {
        lr_mult: 1.0
    }
}

layer {
    bottom: "res3b2_branch2a"
    top: "res3b2_branch2a"
    name: "bn3b2_branch2a"
    type: "BatchNorm"
    batch_norm_param {
        use_global_stats: true
    }
    param {
        lr_mult: 0.0
        decay_mult: 0.0
    }
    param {
        lr_mult: 0.0
        decay_mult: 0.0
    }
    param {
        lr_mult: 0.0
        decay_mult: 0.0
    }
}

layer {
    bottom: "res3b2_branch2a"
    top: "res3b2_branch2a"
    name: "scale3b2_branch2a"
    type: "Scale"
    scale_param {
        bias_term: true
    }
    param {
        lr_mult: 0.0
        decay_mult: 0.0
    }
    param {
        lr_mult: 0.0
        decay_mult: 0.0
    }
}

layer {
    top: "res3b2_branch2a"
    bottom: "res3b2_branch2a"
    name: "res3b2_branch2a_relu"
    type: "ReLU"
}

layer {
    bottom: "res3b2_branch2a"
    top: "res3b2_branch2b"
    name: "res3b2_branch2b"
    type: "Convolution"
    convolution_param {
        num_output: 128
        kernel_size: 3
        pad: 1
        stride: 1
        bias_term: false
    }
    param {
        lr_mult: 1.0
    }
}

layer {
    bottom: "res3b2_branch2b"
    top: "res3b2_branch2b"
    name: "bn3b2_branch2b"
    type: "BatchNorm"
    batch_norm_param {
        use_global_stats: true
    }
    param {
        lr_mult: 0.0
        decay_mult: 0.0
    }
    param {
        lr_mult: 0.0
        decay_mult: 0.0
    }
    param {
        lr_mult: 0.0
        decay_mult: 0.0
    }
}

layer {
    bottom: "res3b2_branch2b"
    top: "res3b2_branch2b"
    name: "scale3b2_branch2b"
    type: "Scale"
    scale_param {
        bias_term: true
    }
    param {
        lr_mult: 0.0
        decay_mult: 0.0
    }
    param {
        lr_mult: 0.0
        decay_mult: 0.0
    }
}

layer {
    top: "res3b2_branch2b"
    bottom: "res3b2_branch2b"
    name: "res3b2_branch2b_relu"
    type: "ReLU"
}

layer {
    bottom: "res3b2_branch2b"
    top: "res3b2_branch2c"
    name: "res3b2_branch2c"
    type: "Convolution"
    convolution_param {
        num_output: 512
        kernel_size: 1
        pad: 0
        stride: 1
        bias_term: false
    }
    param {
        lr_mult: 1.0
    }
}

layer {
    bottom: "res3b2_branch2c"
    top: "res3b2_branch2c"
    name: "bn3b2_branch2c"
    type: "BatchNorm"
    batch_norm_param {
        use_global_stats: true
    }
    param {
        lr_mult: 0.0
        decay_mult: 0.0
    }
    param {
        lr_mult: 0.0
        decay_mult: 0.0
    }
    param {
        lr_mult: 0.0
        decay_mult: 0.0
    }
}

layer {
    bottom: "res3b2_branch2c"
    top: "res3b2_branch2c"
    name: "scale3b2_branch2c"
    type: "Scale"
    scale_param {
        bias_term: true
    }
    param {
        lr_mult: 0.0
        decay_mult: 0.0
    }
    param {
        lr_mult: 0.0
        decay_mult: 0.0
    }
}

layer {
    bottom: "res3b1"
    bottom: "res3b2_branch2c"
    top: "res3b2"
    name: "res3b2"
    type: "Eltwise"
}

layer {
    bottom: "res3b2"
    top: "res3b2"
    name: "res3b2_relu"
    type: "ReLU"
}

layer {
    bottom: "res3b2"
    top: "res3b3_branch2a"
    name: "res3b3_branch2a"
    type: "Convolution"
    convolution_param {
        num_output: 128
        kernel_size: 1
        pad: 0
        stride: 1
        bias_term: false
    }
    param {
        lr_mult: 1.0
    }
}

layer {
    bottom: "res3b3_branch2a"
    top: "res3b3_branch2a"
    name: "bn3b3_branch2a"
    type: "BatchNorm"
    batch_norm_param {
        use_global_stats: true
    }
    param {
        lr_mult: 0.0
        decay_mult: 0.0
    }
    param {
        lr_mult: 0.0
        decay_mult: 0.0
    }
    param {
        lr_mult: 0.0
        decay_mult: 0.0
    }
}

layer {
    bottom: "res3b3_branch2a"
    top: "res3b3_branch2a"
    name: "scale3b3_branch2a"
    type: "Scale"
    scale_param {
        bias_term: true
    }
    param {
        lr_mult: 0.0
        decay_mult: 0.0
    }
    param {
        lr_mult: 0.0
        decay_mult: 0.0
    }
}

layer {
    top: "res3b3_branch2a"
    bottom: "res3b3_branch2a"
    name: "res3b3_branch2a_relu"
    type: "ReLU"
}

layer {
    bottom: "res3b3_branch2a"
    top: "res3b3_branch2b"
    name: "res3b3_branch2b"
    type: "Convolution"
    convolution_param {
        num_output: 128
        kernel_size: 3
        pad: 1
        stride: 1
        bias_term: false
    }
    param {
        lr_mult: 1.0
    }
}

layer {
    bottom: "res3b3_branch2b"
    top: "res3b3_branch2b"
    name: "bn3b3_branch2b"
    type: "BatchNorm"
    batch_norm_param {
        use_global_stats: true
    }
    param {
        lr_mult: 0.0
        decay_mult: 0.0
    }
    param {
        lr_mult: 0.0
        decay_mult: 0.0
    }
    param {
        lr_mult: 0.0
        decay_mult: 0.0
    }
}

layer {
    bottom: "res3b3_branch2b"
    top: "res3b3_branch2b"
    name: "scale3b3_branch2b"
    type: "Scale"
    scale_param {
        bias_term: true
    }
    param {
        lr_mult: 0.0
        decay_mult: 0.0
    }
    param {
        lr_mult: 0.0
        decay_mult: 0.0
    }
}

layer {
    top: "res3b3_branch2b"
    bottom: "res3b3_branch2b"
    name: "res3b3_branch2b_relu"
    type: "ReLU"
}

layer {
    bottom: "res3b3_branch2b"
    top: "res3b3_branch2c"
    name: "res3b3_branch2c"
    type: "Convolution"
    convolution_param {
        num_output: 512
        kernel_size: 1
        pad: 0
        stride: 1
        bias_term: false
    }
    param {
        lr_mult: 1.0
    }
}

layer {
    bottom: "res3b3_branch2c"
    top: "res3b3_branch2c"
    name: "bn3b3_branch2c"
    type: "BatchNorm"
    batch_norm_param {
        use_global_stats: true
    }
    param {
        lr_mult: 0.0
        decay_mult: 0.0
    }
    param {
        lr_mult: 0.0
        decay_mult: 0.0
    }
    param {
        lr_mult: 0.0
        decay_mult: 0.0
    }
}

layer {
    bottom: "res3b3_branch2c"
    top: "res3b3_branch2c"
    name: "scale3b3_branch2c"
    type: "Scale"
    scale_param {
        bias_term: true
    }
    param {
        lr_mult: 0.0
        decay_mult: 0.0
    }
    param {
        lr_mult: 0.0
        decay_mult: 0.0
    }
}

layer {
    bottom: "res3b2"
    bottom: "res3b3_branch2c"
    top: "res3b3"
    name: "res3b3"
    type: "Eltwise"
}

layer {
    bottom: "res3b3"
    top: "res3b3"
    name: "res3b3_relu"
    type: "ReLU"
}

layer {
    bottom: "res3b3"
    top: "res4a_branch1"
    name: "res4a_branch1"
    type: "Convolution"
    convolution_param {
        num_output: 1024
        kernel_size: 1
        pad: 0
        stride: 2
        bias_term: false
    }
    param {
        lr_mult: 1.0
    }
}

layer {
    bottom: "res4a_branch1"
    top: "res4a_branch1"
    name: "bn4a_branch1"
    type: "BatchNorm"
    batch_norm_param {
        use_global_stats: true
    }
    param {
        lr_mult: 0.0
        decay_mult: 0.0
    }
    param {
        lr_mult: 0.0
        decay_mult: 0.0
    }
    param {
        lr_mult: 0.0
        decay_mult: 0.0
    }
}

layer {
    bottom: "res4a_branch1"
    top: "res4a_branch1"
    name: "scale4a_branch1"
    type: "Scale"
    scale_param {
        bias_term: true
    }
    param {
        lr_mult: 0.0
        decay_mult: 0.0
    }
    param {
        lr_mult: 0.0
        decay_mult: 0.0
    }
}

layer {
    bottom: "res3b3"
    top: "res4a_branch2a"
    name: "res4a_branch2a"
    type: "Convolution"
    convolution_param {
        num_output: 256
        kernel_size: 1
        pad: 0
        stride: 2
        bias_term: false
    }
    param {
        lr_mult: 1.0
    }
}

layer {
    bottom: "res4a_branch2a"
    top: "res4a_branch2a"
    name: "bn4a_branch2a"
    type: "BatchNorm"
    batch_norm_param {
        use_global_stats: true
    }
    param {
        lr_mult: 0.0
        decay_mult: 0.0
    }
    param {
        lr_mult: 0.0
        decay_mult: 0.0
    }
    param {
        lr_mult: 0.0
        decay_mult: 0.0
    }
}

layer {
    bottom: "res4a_branch2a"
    top: "res4a_branch2a"
    name: "scale4a_branch2a"
    type: "Scale"
    scale_param {
        bias_term: true
    }
    param {
        lr_mult: 0.0
        decay_mult: 0.0
    }
    param {
        lr_mult: 0.0
        decay_mult: 0.0
    }
}

layer {
    top: "res4a_branch2a"
    bottom: "res4a_branch2a"
    name: "res4a_branch2a_relu"
    type: "ReLU"
}

layer {
    bottom: "res4a_branch2a"
    top: "res4a_branch2b"
    name: "res4a_branch2b"
    type: "Convolution"
    convolution_param {
        num_output: 256
        kernel_size: 3
        pad: 1
        stride: 1
        bias_term: false
    }
    param {
        lr_mult: 1.0
    }
}

layer {
    bottom: "res4a_branch2b"
    top: "res4a_branch2b"
    name: "bn4a_branch2b"
    type: "BatchNorm"
    batch_norm_param {
        use_global_stats: true
    }
    param {
        lr_mult: 0.0
        decay_mult: 0.0
    }
    param {
        lr_mult: 0.0
        decay_mult: 0.0
    }
    param {
        lr_mult: 0.0
        decay_mult: 0.0
    }
}

layer {
    bottom: "res4a_branch2b"
    top: "res4a_branch2b"
    name: "scale4a_branch2b"
    type: "Scale"
    scale_param {
        bias_term: true
    }
    param {
        lr_mult: 0.0
        decay_mult: 0.0
    }
    param {
        lr_mult: 0.0
        decay_mult: 0.0
    }
}

layer {
    top: "res4a_branch2b"
    bottom: "res4a_branch2b"
    name: "res4a_branch2b_relu"
    type: "ReLU"
}

layer {
    bottom: "res4a_branch2b"
    top: "res4a_branch2c"
    name: "res4a_branch2c"
    type: "Convolution"
    convolution_param {
        num_output: 1024
        kernel_size: 1
        pad: 0
        stride: 1
        bias_term: false
    }
    param {
        lr_mult: 1.0
    }
}

layer {
    bottom: "res4a_branch2c"
    top: "res4a_branch2c"
    name: "bn4a_branch2c"
    type: "BatchNorm"
    batch_norm_param {
        use_global_stats: true
    }
    param {
        lr_mult: 0.0
        decay_mult: 0.0
    }
    param {
        lr_mult: 0.0
        decay_mult: 0.0
    }
    param {
        lr_mult: 0.0
        decay_mult: 0.0
    }
}

layer {
    bottom: "res4a_branch2c"
    top: "res4a_branch2c"
    name: "scale4a_branch2c"
    type: "Scale"
    scale_param {
        bias_term: true
    }
    param {
        lr_mult: 0.0
        decay_mult: 0.0
    }
    param {
        lr_mult: 0.0
        decay_mult: 0.0
    }
}

layer {
    bottom: "res4a_branch1"
    bottom: "res4a_branch2c"
    top: "res4a"
    name: "res4a"
    type: "Eltwise"
}

layer {
    bottom: "res4a"
    top: "res4a"
    name: "res4a_relu"
    type: "ReLU"
}

layer {
    bottom: "res4a"
    top: "res4b1_branch2a"
    name: "res4b1_branch2a"
    type: "Convolution"
    convolution_param {
        num_output: 256
        kernel_size: 1
        pad: 0
        stride: 1
        bias_term: false
    }
    param {
        lr_mult: 1.0
    }
}

layer {
    bottom: "res4b1_branch2a"
    top: "res4b1_branch2a"
    name: "bn4b1_branch2a"
    type: "BatchNorm"
    batch_norm_param {
        use_global_stats: true
    }
    param {
        lr_mult: 0.0
        decay_mult: 0.0
    }
    param {
        lr_mult: 0.0
        decay_mult: 0.0
    }
    param {
        lr_mult: 0.0
        decay_mult: 0.0
    }
}

layer {
    bottom: "res4b1_branch2a"
    top: "res4b1_branch2a"
    name: "scale4b1_branch2a"
    type: "Scale"
    scale_param {
        bias_term: true
    }
    param {
        lr_mult: 0.0
        decay_mult: 0.0
    }
    param {
        lr_mult: 0.0
        decay_mult: 0.0
    }
}

layer {
    top: "res4b1_branch2a"
    bottom: "res4b1_branch2a"
    name: "res4b1_branch2a_relu"
    type: "ReLU"
}

layer {
    bottom: "res4b1_branch2a"
    top: "res4b1_branch2b"
    name: "res4b1_branch2b"
    type: "Convolution"
    convolution_param {
        num_output: 256
        kernel_size: 3
        pad: 1
        stride: 1
        bias_term: false
    }
    param {
        lr_mult: 1.0
    }
}

layer {
    bottom: "res4b1_branch2b"
    top: "res4b1_branch2b"
    name: "bn4b1_branch2b"
    type: "BatchNorm"
    batch_norm_param {
        use_global_stats: true
    }
    param {
        lr_mult: 0.0
        decay_mult: 0.0
    }
    param {
        lr_mult: 0.0
        decay_mult: 0.0
    }
    param {
        lr_mult: 0.0
        decay_mult: 0.0
    }
}

layer {
    bottom: "res4b1_branch2b"
    top: "res4b1_branch2b"
    name: "scale4b1_branch2b"
    type: "Scale"
    scale_param {
        bias_term: true
    }
    param {
        lr_mult: 0.0
        decay_mult: 0.0
    }
    param {
        lr_mult: 0.0
        decay_mult: 0.0
    }
}

layer {
    top: "res4b1_branch2b"
    bottom: "res4b1_branch2b"
    name: "res4b1_branch2b_relu"
    type: "ReLU"
}

layer {
    bottom: "res4b1_branch2b"
    top: "res4b1_branch2c"
    name: "res4b1_branch2c"
    type: "Convolution"
    convolution_param {
        num_output: 1024
        kernel_size: 1
        pad: 0
        stride: 1
        bias_term: false
    }
    param {
        lr_mult: 1.0
    }
}

layer {
    bottom: "res4b1_branch2c"
    top: "res4b1_branch2c"
    name: "bn4b1_branch2c"
    type: "BatchNorm"
    batch_norm_param {
        use_global_stats: true
    }
    param {
        lr_mult: 0.0
        decay_mult: 0.0
    }
    param {
        lr_mult: 0.0
        decay_mult: 0.0
    }
    param {
        lr_mult: 0.0
        decay_mult: 0.0
    }
}

layer {
    bottom: "res4b1_branch2c"
    top: "res4b1_branch2c"
    name: "scale4b1_branch2c"
    type: "Scale"
    scale_param {
        bias_term: true
    }
    param {
        lr_mult: 0.0
        decay_mult: 0.0
    }
    param {
        lr_mult: 0.0
        decay_mult: 0.0
    }
}

layer {
    bottom: "res4a"
    bottom: "res4b1_branch2c"
    top: "res4b1"
    name: "res4b1"
    type: "Eltwise"
}

layer {
    bottom: "res4b1"
    top: "res4b1"
    name: "res4b1_relu"
    type: "ReLU"
}

layer {
    bottom: "res4b1"
    top: "res4b2_branch2a"
    name: "res4b2_branch2a"
    type: "Convolution"
    convolution_param {
        num_output: 256
        kernel_size: 1
        pad: 0
        stride: 1
        bias_term: false
    }
    param {
        lr_mult: 1.0
    }
}

layer {
    bottom: "res4b2_branch2a"
    top: "res4b2_branch2a"
    name: "bn4b2_branch2a"
    type: "BatchNorm"
    batch_norm_param {
        use_global_stats: true
    }
    param {
        lr_mult: 0.0
        decay_mult: 0.0
    }
    param {
        lr_mult: 0.0
        decay_mult: 0.0
    }
    param {
        lr_mult: 0.0
        decay_mult: 0.0
    }
}

layer {
    bottom: "res4b2_branch2a"
    top: "res4b2_branch2a"
    name: "scale4b2_branch2a"
    type: "Scale"
    scale_param {
        bias_term: true
    }
    param {
        lr_mult: 0.0
        decay_mult: 0.0
    }
    param {
        lr_mult: 0.0
        decay_mult: 0.0
    }
}

layer {
    top: "res4b2_branch2a"
    bottom: "res4b2_branch2a"
    name: "res4b2_branch2a_relu"
    type: "ReLU"
}

layer {
    bottom: "res4b2_branch2a"
    top: "res4b2_branch2b"
    name: "res4b2_branch2b"
    type: "Convolution"
    convolution_param {
        num_output: 256
        kernel_size: 3
        pad: 1
        stride: 1
        bias_term: false
    }
    param {
        lr_mult: 1.0
    }
}

layer {
    bottom: "res4b2_branch2b"
    top: "res4b2_branch2b"
    name: "bn4b2_branch2b"
    type: "BatchNorm"
    batch_norm_param {
        use_global_stats: true
    }
    param {
        lr_mult: 0.0
        decay_mult: 0.0
    }
    param {
        lr_mult: 0.0
        decay_mult: 0.0
    }
    param {
        lr_mult: 0.0
        decay_mult: 0.0
    }
}

layer {
    bottom: "res4b2_branch2b"
    top: "res4b2_branch2b"
    name: "scale4b2_branch2b"
    type: "Scale"
    scale_param {
        bias_term: true
    }
    param {
        lr_mult: 0.0
        decay_mult: 0.0
    }
    param {
        lr_mult: 0.0
        decay_mult: 0.0
    }
}

layer {
    top: "res4b2_branch2b"
    bottom: "res4b2_branch2b"
    name: "res4b2_branch2b_relu"
    type: "ReLU"
}

layer {
    bottom: "res4b2_branch2b"
    top: "res4b2_branch2c"
    name: "res4b2_branch2c"
    type: "Convolution"
    convolution_param {
        num_output: 1024
        kernel_size: 1
        pad: 0
        stride: 1
        bias_term: false
    }
    param {
        lr_mult: 1.0
    }
}

layer {
    bottom: "res4b2_branch2c"
    top: "res4b2_branch2c"
    name: "bn4b2_branch2c"
    type: "BatchNorm"
    batch_norm_param {
        use_global_stats: true
    }
    param {
        lr_mult: 0.0
        decay_mult: 0.0
    }
    param {
        lr_mult: 0.0
        decay_mult: 0.0
    }
    param {
        lr_mult: 0.0
        decay_mult: 0.0
    }
}

layer {
    bottom: "res4b2_branch2c"
    top: "res4b2_branch2c"
    name: "scale4b2_branch2c"
    type: "Scale"
    scale_param {
        bias_term: true
    }
    param {
        lr_mult: 0.0
        decay_mult: 0.0
    }
    param {
        lr_mult: 0.0
        decay_mult: 0.0
    }
}

layer {
    bottom: "res4b1"
    bottom: "res4b2_branch2c"
    top: "res4b2"
    name: "res4b2"
    type: "Eltwise"
}

layer {
    bottom: "res4b2"
    top: "res4b2"
    name: "res4b2_relu"
    type: "ReLU"
}

layer {
    bottom: "res4b2"
    top: "res4b3_branch2a"
    name: "res4b3_branch2a"
    type: "Convolution"
    convolution_param {
        num_output: 256
        kernel_size: 1
        pad: 0
        stride: 1
        bias_term: false
    }
    param {
        lr_mult: 1.0
    }
}

layer {
    bottom: "res4b3_branch2a"
    top: "res4b3_branch2a"
    name: "bn4b3_branch2a"
    type: "BatchNorm"
    batch_norm_param {
        use_global_stats: true
    }
    param {
        lr_mult: 0.0
        decay_mult: 0.0
    }
    param {
        lr_mult: 0.0
        decay_mult: 0.0
    }
    param {
        lr_mult: 0.0
        decay_mult: 0.0
    }
}

layer {
    bottom: "res4b3_branch2a"
    top: "res4b3_branch2a"
    name: "scale4b3_branch2a"
    type: "Scale"
    scale_param {
        bias_term: true
    }
    param {
        lr_mult: 0.0
        decay_mult: 0.0
    }
    param {
        lr_mult: 0.0
        decay_mult: 0.0
    }
}

layer {
    top: "res4b3_branch2a"
    bottom: "res4b3_branch2a"
    name: "res4b3_branch2a_relu"
    type: "ReLU"
}

layer {
    bottom: "res4b3_branch2a"
    top: "res4b3_branch2b"
    name: "res4b3_branch2b"
    type: "Convolution"
    convolution_param {
        num_output: 256
        kernel_size: 3
        pad: 1
        stride: 1
        bias_term: false
    }
    param {
        lr_mult: 1.0
    }
}

layer {
    bottom: "res4b3_branch2b"
    top: "res4b3_branch2b"
    name: "bn4b3_branch2b"
    type: "BatchNorm"
    batch_norm_param {
        use_global_stats: true
    }
    param {
        lr_mult: 0.0
        decay_mult: 0.0
    }
    param {
        lr_mult: 0.0
        decay_mult: 0.0
    }
    param {
        lr_mult: 0.0
        decay_mult: 0.0
    }
}

layer {
    bottom: "res4b3_branch2b"
    top: "res4b3_branch2b"
    name: "scale4b3_branch2b"
    type: "Scale"
    scale_param {
        bias_term: true
    }
    param {
        lr_mult: 0.0
        decay_mult: 0.0
    }
    param {
        lr_mult: 0.0
        decay_mult: 0.0
    }
}

layer {
    top: "res4b3_branch2b"
    bottom: "res4b3_branch2b"
    name: "res4b3_branch2b_relu"
    type: "ReLU"
}

layer {
    bottom: "res4b3_branch2b"
    top: "res4b3_branch2c"
    name: "res4b3_branch2c"
    type: "Convolution"
    convolution_param {
        num_output: 1024
        kernel_size: 1
        pad: 0
        stride: 1
        bias_term: false
    }
    param {
        lr_mult: 1.0
    }
}

layer {
    bottom: "res4b3_branch2c"
    top: "res4b3_branch2c"
    name: "bn4b3_branch2c"
    type: "BatchNorm"
    batch_norm_param {
        use_global_stats: true
    }
    param {
        lr_mult: 0.0
        decay_mult: 0.0
    }
    param {
        lr_mult: 0.0
        decay_mult: 0.0
    }
    param {
        lr_mult: 0.0
        decay_mult: 0.0
    }
}

layer {
    bottom: "res4b3_branch2c"
    top: "res4b3_branch2c"
    name: "scale4b3_branch2c"
    type: "Scale"
    scale_param {
        bias_term: true
    }
    param {
        lr_mult: 0.0
        decay_mult: 0.0
    }
    param {
        lr_mult: 0.0
        decay_mult: 0.0
    }
}

layer {
    bottom: "res4b2"
    bottom: "res4b3_branch2c"
    top: "res4b3"
    name: "res4b3"
    type: "Eltwise"
}

layer {
    bottom: "res4b3"
    top: "res4b3"
    name: "res4b3_relu"
    type: "ReLU"
}

layer {
    bottom: "res4b3"
    top: "res4b4_branch2a"
    name: "res4b4_branch2a"
    type: "Convolution"
    convolution_param {
        num_output: 256
        kernel_size: 1
        pad: 0
        stride: 1
        bias_term: false
    }
    param {
        lr_mult: 1.0
    }
}

layer {
    bottom: "res4b4_branch2a"
    top: "res4b4_branch2a"
    name: "bn4b4_branch2a"
    type: "BatchNorm"
    batch_norm_param {
        use_global_stats: true
    }
    param {
        lr_mult: 0.0
        decay_mult: 0.0
    }
    param {
        lr_mult: 0.0
        decay_mult: 0.0
    }
    param {
        lr_mult: 0.0
        decay_mult: 0.0
    }
}

layer {
    bottom: "res4b4_branch2a"
    top: "res4b4_branch2a"
    name: "scale4b4_branch2a"
    type: "Scale"
    scale_param {
        bias_term: true
    }
    param {
        lr_mult: 0.0
        decay_mult: 0.0
    }
    param {
        lr_mult: 0.0
        decay_mult: 0.0
    }
}

layer {
    top: "res4b4_branch2a"
    bottom: "res4b4_branch2a"
    name: "res4b4_branch2a_relu"
    type: "ReLU"
}

layer {
    bottom: "res4b4_branch2a"
    top: "res4b4_branch2b"
    name: "res4b4_branch2b"
    type: "Convolution"
    convolution_param {
        num_output: 256
        kernel_size: 3
        pad: 1
        stride: 1
        bias_term: false
    }
    param {
        lr_mult: 1.0
    }
}

layer {
    bottom: "res4b4_branch2b"
    top: "res4b4_branch2b"
    name: "bn4b4_branch2b"
    type: "BatchNorm"
    batch_norm_param {
        use_global_stats: true
    }
    param {
        lr_mult: 0.0
        decay_mult: 0.0
    }
    param {
        lr_mult: 0.0
        decay_mult: 0.0
    }
    param {
        lr_mult: 0.0
        decay_mult: 0.0
    }
}

layer {
    bottom: "res4b4_branch2b"
    top: "res4b4_branch2b"
    name: "scale4b4_branch2b"
    type: "Scale"
    scale_param {
        bias_term: true
    }
    param {
        lr_mult: 0.0
        decay_mult: 0.0
    }
    param {
        lr_mult: 0.0
        decay_mult: 0.0
    }
}

layer {
    top: "res4b4_branch2b"
    bottom: "res4b4_branch2b"
    name: "res4b4_branch2b_relu"
    type: "ReLU"
}

layer {
    bottom: "res4b4_branch2b"
    top: "res4b4_branch2c"
    name: "res4b4_branch2c"
    type: "Convolution"
    convolution_param {
        num_output: 1024
        kernel_size: 1
        pad: 0
        stride: 1
        bias_term: false
    }
    param {
        lr_mult: 1.0
    }
}

layer {
    bottom: "res4b4_branch2c"
    top: "res4b4_branch2c"
    name: "bn4b4_branch2c"
    type: "BatchNorm"
    batch_norm_param {
        use_global_stats: true
    }
    param {
        lr_mult: 0.0
        decay_mult: 0.0
    }
    param {
        lr_mult: 0.0
        decay_mult: 0.0
    }
    param {
        lr_mult: 0.0
        decay_mult: 0.0
    }
}

layer {
    bottom: "res4b4_branch2c"
    top: "res4b4_branch2c"
    name: "scale4b4_branch2c"
    type: "Scale"
    scale_param {
        bias_term: true
    }
    param {
        lr_mult: 0.0
        decay_mult: 0.0
    }
    param {
        lr_mult: 0.0
        decay_mult: 0.0
    }
}

layer {
    bottom: "res4b3"
    bottom: "res4b4_branch2c"
    top: "res4b4"
    name: "res4b4"
    type: "Eltwise"
}

layer {
    bottom: "res4b4"
    top: "res4b4"
    name: "res4b4_relu"
    type: "ReLU"
}

layer {
    bottom: "res4b4"
    top: "res4b5_branch2a"
    name: "res4b5_branch2a"
    type: "Convolution"
    convolution_param {
        num_output: 256
        kernel_size: 1
        pad: 0
        stride: 1
        bias_term: false
    }
    param {
        lr_mult: 1.0
    }
}

layer {
    bottom: "res4b5_branch2a"
    top: "res4b5_branch2a"
    name: "bn4b5_branch2a"
    type: "BatchNorm"
    batch_norm_param {
        use_global_stats: true
    }
    param {
        lr_mult: 0.0
        decay_mult: 0.0
    }
    param {
        lr_mult: 0.0
        decay_mult: 0.0
    }
    param {
        lr_mult: 0.0
        decay_mult: 0.0
    }
}

layer {
    bottom: "res4b5_branch2a"
    top: "res4b5_branch2a"
    name: "scale4b5_branch2a"
    type: "Scale"
    scale_param {
        bias_term: true
    }
    param {
        lr_mult: 0.0
        decay_mult: 0.0
    }
    param {
        lr_mult: 0.0
        decay_mult: 0.0
    }
}

layer {
    top: "res4b5_branch2a"
    bottom: "res4b5_branch2a"
    name: "res4b5_branch2a_relu"
    type: "ReLU"
}

layer {
    bottom: "res4b5_branch2a"
    top: "res4b5_branch2b"
    name: "res4b5_branch2b"
    type: "Convolution"
    convolution_param {
        num_output: 256
        kernel_size: 3
        pad: 1
        stride: 1
        bias_term: false
    }
    param {
        lr_mult: 1.0
    }
}

layer {
    bottom: "res4b5_branch2b"
    top: "res4b5_branch2b"
    name: "bn4b5_branch2b"
    type: "BatchNorm"
    batch_norm_param {
        use_global_stats: true
    }
    param {
        lr_mult: 0.0
        decay_mult: 0.0
    }
    param {
        lr_mult: 0.0
        decay_mult: 0.0
    }
    param {
        lr_mult: 0.0
        decay_mult: 0.0
    }
}

layer {
    bottom: "res4b5_branch2b"
    top: "res4b5_branch2b"
    name: "scale4b5_branch2b"
    type: "Scale"
    scale_param {
        bias_term: true
    }
    param {
        lr_mult: 0.0
        decay_mult: 0.0
    }
    param {
        lr_mult: 0.0
        decay_mult: 0.0
    }
}

layer {
    top: "res4b5_branch2b"
    bottom: "res4b5_branch2b"
    name: "res4b5_branch2b_relu"
    type: "ReLU"
}

layer {
    bottom: "res4b5_branch2b"
    top: "res4b5_branch2c"
    name: "res4b5_branch2c"
    type: "Convolution"
    convolution_param {
        num_output: 1024
        kernel_size: 1
        pad: 0
        stride: 1
        bias_term: false
    }
    param {
        lr_mult: 1.0
    }
}

layer {
    bottom: "res4b5_branch2c"
    top: "res4b5_branch2c"
    name: "bn4b5_branch2c"
    type: "BatchNorm"
    batch_norm_param {
        use_global_stats: true
    }
    param {
        lr_mult: 0.0
        decay_mult: 0.0
    }
    param {
        lr_mult: 0.0
        decay_mult: 0.0
    }
    param {
        lr_mult: 0.0
        decay_mult: 0.0
    }
}

layer {
    bottom: "res4b5_branch2c"
    top: "res4b5_branch2c"
    name: "scale4b5_branch2c"
    type: "Scale"
    scale_param {
        bias_term: true
    }
    param {
        lr_mult: 0.0
        decay_mult: 0.0
    }
    param {
        lr_mult: 0.0
        decay_mult: 0.0
    }
}

layer {
    bottom: "res4b4"
    bottom: "res4b5_branch2c"
    top: "res4b5"
    name: "res4b5"
    type: "Eltwise"
}

layer {
    bottom: "res4b5"
    top: "res4b5"
    name: "res4b5_relu"
    type: "ReLU"
}

layer {
    bottom: "res4b5"
    top: "res4b6_branch2a"
    name: "res4b6_branch2a"
    type: "Convolution"
    convolution_param {
        num_output: 256
        kernel_size: 1
        pad: 0
        stride: 1
        bias_term: false
    }
    param {
        lr_mult: 1.0
    }
}

layer {
    bottom: "res4b6_branch2a"
    top: "res4b6_branch2a"
    name: "bn4b6_branch2a"
    type: "BatchNorm"
    batch_norm_param {
        use_global_stats: true
    }
    param {
        lr_mult: 0.0
        decay_mult: 0.0
    }
    param {
        lr_mult: 0.0
        decay_mult: 0.0
    }
    param {
        lr_mult: 0.0
        decay_mult: 0.0
    }
}

layer {
    bottom: "res4b6_branch2a"
    top: "res4b6_branch2a"
    name: "scale4b6_branch2a"
    type: "Scale"
    scale_param {
        bias_term: true
    }
    param {
        lr_mult: 0.0
        decay_mult: 0.0
    }
    param {
        lr_mult: 0.0
        decay_mult: 0.0
    }
}

layer {
    top: "res4b6_branch2a"
    bottom: "res4b6_branch2a"
    name: "res4b6_branch2a_relu"
    type: "ReLU"
}

layer {
    bottom: "res4b6_branch2a"
    top: "res4b6_branch2b"
    name: "res4b6_branch2b"
    type: "Convolution"
    convolution_param {
        num_output: 256
        kernel_size: 3
        pad: 1
        stride: 1
        bias_term: false
    }
    param {
        lr_mult: 1.0
    }
}

layer {
    bottom: "res4b6_branch2b"
    top: "res4b6_branch2b"
    name: "bn4b6_branch2b"
    type: "BatchNorm"
    batch_norm_param {
        use_global_stats: true
    }
    param {
        lr_mult: 0.0
        decay_mult: 0.0
    }
    param {
        lr_mult: 0.0
        decay_mult: 0.0
    }
    param {
        lr_mult: 0.0
        decay_mult: 0.0
    }
}

layer {
    bottom: "res4b6_branch2b"
    top: "res4b6_branch2b"
    name: "scale4b6_branch2b"
    type: "Scale"
    scale_param {
        bias_term: true
    }
    param {
        lr_mult: 0.0
        decay_mult: 0.0
    }
    param {
        lr_mult: 0.0
        decay_mult: 0.0
    }
}

layer {
    top: "res4b6_branch2b"
    bottom: "res4b6_branch2b"
    name: "res4b6_branch2b_relu"
    type: "ReLU"
}

layer {
    bottom: "res4b6_branch2b"
    top: "res4b6_branch2c"
    name: "res4b6_branch2c"
    type: "Convolution"
    convolution_param {
        num_output: 1024
        kernel_size: 1
        pad: 0
        stride: 1
        bias_term: false
    }
    param {
        lr_mult: 1.0
    }
}

layer {
    bottom: "res4b6_branch2c"
    top: "res4b6_branch2c"
    name: "bn4b6_branch2c"
    type: "BatchNorm"
    batch_norm_param {
        use_global_stats: true
    }
    param {
        lr_mult: 0.0
        decay_mult: 0.0
    }
    param {
        lr_mult: 0.0
        decay_mult: 0.0
    }
    param {
        lr_mult: 0.0
        decay_mult: 0.0
    }
}

layer {
    bottom: "res4b6_branch2c"
    top: "res4b6_branch2c"
    name: "scale4b6_branch2c"
    type: "Scale"
    scale_param {
        bias_term: true
    }
    param {
        lr_mult: 0.0
        decay_mult: 0.0
    }
    param {
        lr_mult: 0.0
        decay_mult: 0.0
    }
}

layer {
    bottom: "res4b5"
    bottom: "res4b6_branch2c"
    top: "res4b6"
    name: "res4b6"
    type: "Eltwise"
}

layer {
    bottom: "res4b6"
    top: "res4b6"
    name: "res4b6_relu"
    type: "ReLU"
}

layer {
    bottom: "res4b6"
    top: "res4b7_branch2a"
    name: "res4b7_branch2a"
    type: "Convolution"
    convolution_param {
        num_output: 256
        kernel_size: 1
        pad: 0
        stride: 1
        bias_term: false
    }
    param {
        lr_mult: 1.0
    }
}

layer {
    bottom: "res4b7_branch2a"
    top: "res4b7_branch2a"
    name: "bn4b7_branch2a"
    type: "BatchNorm"
    batch_norm_param {
        use_global_stats: true
    }
    param {
        lr_mult: 0.0
        decay_mult: 0.0
    }
    param {
        lr_mult: 0.0
        decay_mult: 0.0
    }
    param {
        lr_mult: 0.0
        decay_mult: 0.0
    }
}

layer {
    bottom: "res4b7_branch2a"
    top: "res4b7_branch2a"
    name: "scale4b7_branch2a"
    type: "Scale"
    scale_param {
        bias_term: true
    }
    param {
        lr_mult: 0.0
        decay_mult: 0.0
    }
    param {
        lr_mult: 0.0
        decay_mult: 0.0
    }
}

layer {
    top: "res4b7_branch2a"
    bottom: "res4b7_branch2a"
    name: "res4b7_branch2a_relu"
    type: "ReLU"
}

layer {
    bottom: "res4b7_branch2a"
    top: "res4b7_branch2b"
    name: "res4b7_branch2b"
    type: "Convolution"
    convolution_param {
        num_output: 256
        kernel_size: 3
        pad: 1
        stride: 1
        bias_term: false
    }
    param {
        lr_mult: 1.0
    }
}

layer {
    bottom: "res4b7_branch2b"
    top: "res4b7_branch2b"
    name: "bn4b7_branch2b"
    type: "BatchNorm"
    batch_norm_param {
        use_global_stats: true
    }
    param {
        lr_mult: 0.0
        decay_mult: 0.0
    }
    param {
        lr_mult: 0.0
        decay_mult: 0.0
    }
    param {
        lr_mult: 0.0
        decay_mult: 0.0
    }
}

layer {
    bottom: "res4b7_branch2b"
    top: "res4b7_branch2b"
    name: "scale4b7_branch2b"
    type: "Scale"
    scale_param {
        bias_term: true
    }
    param {
        lr_mult: 0.0
        decay_mult: 0.0
    }
    param {
        lr_mult: 0.0
        decay_mult: 0.0
    }
}

layer {
    top: "res4b7_branch2b"
    bottom: "res4b7_branch2b"
    name: "res4b7_branch2b_relu"
    type: "ReLU"
}

layer {
    bottom: "res4b7_branch2b"
    top: "res4b7_branch2c"
    name: "res4b7_branch2c"
    type: "Convolution"
    convolution_param {
        num_output: 1024
        kernel_size: 1
        pad: 0
        stride: 1
        bias_term: false
    }
    param {
        lr_mult: 1.0
    }
}

layer {
    bottom: "res4b7_branch2c"
    top: "res4b7_branch2c"
    name: "bn4b7_branch2c"
    type: "BatchNorm"
    batch_norm_param {
        use_global_stats: true
    }
    param {
        lr_mult: 0.0
        decay_mult: 0.0
    }
    param {
        lr_mult: 0.0
        decay_mult: 0.0
    }
    param {
        lr_mult: 0.0
        decay_mult: 0.0
    }
}

layer {
    bottom: "res4b7_branch2c"
    top: "res4b7_branch2c"
    name: "scale4b7_branch2c"
    type: "Scale"
    scale_param {
        bias_term: true
    }
    param {
        lr_mult: 0.0
        decay_mult: 0.0
    }
    param {
        lr_mult: 0.0
        decay_mult: 0.0
    }
}

layer {
    bottom: "res4b6"
    bottom: "res4b7_branch2c"
    top: "res4b7"
    name: "res4b7"
    type: "Eltwise"
}

layer {
    bottom: "res4b7"
    top: "res4b7"
    name: "res4b7_relu"
    type: "ReLU"
}

layer {
    bottom: "res4b7"
    top: "res4b8_branch2a"
    name: "res4b8_branch2a"
    type: "Convolution"
    convolution_param {
        num_output: 256
        kernel_size: 1
        pad: 0
        stride: 1
        bias_term: false
    }
    param {
        lr_mult: 1.0
    }
}

layer {
    bottom: "res4b8_branch2a"
    top: "res4b8_branch2a"
    name: "bn4b8_branch2a"
    type: "BatchNorm"
    batch_norm_param {
        use_global_stats: true
    }
    param {
        lr_mult: 0.0
        decay_mult: 0.0
    }
    param {
        lr_mult: 0.0
        decay_mult: 0.0
    }
    param {
        lr_mult: 0.0
        decay_mult: 0.0
    }
}

layer {
    bottom: "res4b8_branch2a"
    top: "res4b8_branch2a"
    name: "scale4b8_branch2a"
    type: "Scale"
    scale_param {
        bias_term: true
    }
    param {
        lr_mult: 0.0
        decay_mult: 0.0
    }
    param {
        lr_mult: 0.0
        decay_mult: 0.0
    }
}

layer {
    top: "res4b8_branch2a"
    bottom: "res4b8_branch2a"
    name: "res4b8_branch2a_relu"
    type: "ReLU"
}

layer {
    bottom: "res4b8_branch2a"
    top: "res4b8_branch2b"
    name: "res4b8_branch2b"
    type: "Convolution"
    convolution_param {
        num_output: 256
        kernel_size: 3
        pad: 1
        stride: 1
        bias_term: false
    }
    param {
        lr_mult: 1.0
    }
}

layer {
    bottom: "res4b8_branch2b"
    top: "res4b8_branch2b"
    name: "bn4b8_branch2b"
    type: "BatchNorm"
    batch_norm_param {
        use_global_stats: true
    }
    param {
        lr_mult: 0.0
        decay_mult: 0.0
    }
    param {
        lr_mult: 0.0
        decay_mult: 0.0
    }
    param {
        lr_mult: 0.0
        decay_mult: 0.0
    }
}

layer {
    bottom: "res4b8_branch2b"
    top: "res4b8_branch2b"
    name: "scale4b8_branch2b"
    type: "Scale"
    scale_param {
        bias_term: true
    }
    param {
        lr_mult: 0.0
        decay_mult: 0.0
    }
    param {
        lr_mult: 0.0
        decay_mult: 0.0
    }
}

layer {
    top: "res4b8_branch2b"
    bottom: "res4b8_branch2b"
    name: "res4b8_branch2b_relu"
    type: "ReLU"
}

layer {
    bottom: "res4b8_branch2b"
    top: "res4b8_branch2c"
    name: "res4b8_branch2c"
    type: "Convolution"
    convolution_param {
        num_output: 1024
        kernel_size: 1
        pad: 0
        stride: 1
        bias_term: false
    }
    param {
        lr_mult: 1.0
    }
}

layer {
    bottom: "res4b8_branch2c"
    top: "res4b8_branch2c"
    name: "bn4b8_branch2c"
    type: "BatchNorm"
    batch_norm_param {
        use_global_stats: true
    }
    param {
        lr_mult: 0.0
        decay_mult: 0.0
    }
    param {
        lr_mult: 0.0
        decay_mult: 0.0
    }
    param {
        lr_mult: 0.0
        decay_mult: 0.0
    }
}

layer {
    bottom: "res4b8_branch2c"
    top: "res4b8_branch2c"
    name: "scale4b8_branch2c"
    type: "Scale"
    scale_param {
        bias_term: true
    }
    param {
        lr_mult: 0.0
        decay_mult: 0.0
    }
    param {
        lr_mult: 0.0
        decay_mult: 0.0
    }
}

layer {
    bottom: "res4b7"
    bottom: "res4b8_branch2c"
    top: "res4b8"
    name: "res4b8"
    type: "Eltwise"
}

layer {
    bottom: "res4b8"
    top: "res4b8"
    name: "res4b8_relu"
    type: "ReLU"
}

layer {
    bottom: "res4b8"
    top: "res4b9_branch2a"
    name: "res4b9_branch2a"
    type: "Convolution"
    convolution_param {
        num_output: 256
        kernel_size: 1
        pad: 0
        stride: 1
        bias_term: false
    }
    param {
        lr_mult: 1.0
    }
}

layer {
    bottom: "res4b9_branch2a"
    top: "res4b9_branch2a"
    name: "bn4b9_branch2a"
    type: "BatchNorm"
    batch_norm_param {
        use_global_stats: true
    }
    param {
        lr_mult: 0.0
        decay_mult: 0.0
    }
    param {
        lr_mult: 0.0
        decay_mult: 0.0
    }
    param {
        lr_mult: 0.0
        decay_mult: 0.0
    }
}

layer {
    bottom: "res4b9_branch2a"
    top: "res4b9_branch2a"
    name: "scale4b9_branch2a"
    type: "Scale"
    scale_param {
        bias_term: true
    }
    param {
        lr_mult: 0.0
        decay_mult: 0.0
    }
    param {
        lr_mult: 0.0
        decay_mult: 0.0
    }
}

layer {
    top: "res4b9_branch2a"
    bottom: "res4b9_branch2a"
    name: "res4b9_branch2a_relu"
    type: "ReLU"
}

layer {
    bottom: "res4b9_branch2a"
    top: "res4b9_branch2b"
    name: "res4b9_branch2b"
    type: "Convolution"
    convolution_param {
        num_output: 256
        kernel_size: 3
        pad: 1
        stride: 1
        bias_term: false
    }
    param {
        lr_mult: 1.0
    }
}

layer {
    bottom: "res4b9_branch2b"
    top: "res4b9_branch2b"
    name: "bn4b9_branch2b"
    type: "BatchNorm"
    batch_norm_param {
        use_global_stats: true
    }
    param {
        lr_mult: 0.0
        decay_mult: 0.0
    }
    param {
        lr_mult: 0.0
        decay_mult: 0.0
    }
    param {
        lr_mult: 0.0
        decay_mult: 0.0
    }
}

layer {
    bottom: "res4b9_branch2b"
    top: "res4b9_branch2b"
    name: "scale4b9_branch2b"
    type: "Scale"
    scale_param {
        bias_term: true
    }
    param {
        lr_mult: 0.0
        decay_mult: 0.0
    }
    param {
        lr_mult: 0.0
        decay_mult: 0.0
    }
}

layer {
    top: "res4b9_branch2b"
    bottom: "res4b9_branch2b"
    name: "res4b9_branch2b_relu"
    type: "ReLU"
}

layer {
    bottom: "res4b9_branch2b"
    top: "res4b9_branch2c"
    name: "res4b9_branch2c"
    type: "Convolution"
    convolution_param {
        num_output: 1024
        kernel_size: 1
        pad: 0
        stride: 1
        bias_term: false
    }
    param {
        lr_mult: 1.0
    }
}

layer {
    bottom: "res4b9_branch2c"
    top: "res4b9_branch2c"
    name: "bn4b9_branch2c"
    type: "BatchNorm"
    batch_norm_param {
        use_global_stats: true
    }
    param {
        lr_mult: 0.0
        decay_mult: 0.0
    }
    param {
        lr_mult: 0.0
        decay_mult: 0.0
    }
    param {
        lr_mult: 0.0
        decay_mult: 0.0
    }
}

layer {
    bottom: "res4b9_branch2c"
    top: "res4b9_branch2c"
    name: "scale4b9_branch2c"
    type: "Scale"
    scale_param {
        bias_term: true
    }
    param {
        lr_mult: 0.0
        decay_mult: 0.0
    }
    param {
        lr_mult: 0.0
        decay_mult: 0.0
    }
}

layer {
    bottom: "res4b8"
    bottom: "res4b9_branch2c"
    top: "res4b9"
    name: "res4b9"
    type: "Eltwise"
}

layer {
    bottom: "res4b9"
    top: "res4b9"
    name: "res4b9_relu"
    type: "ReLU"
}

layer {
    bottom: "res4b9"
    top: "res4b10_branch2a"
    name: "res4b10_branch2a"
    type: "Convolution"
    convolution_param {
        num_output: 256
        kernel_size: 1
        pad: 0
        stride: 1
        bias_term: false
    }
    param {
        lr_mult: 1.0
    }
}

layer {
    bottom: "res4b10_branch2a"
    top: "res4b10_branch2a"
    name: "bn4b10_branch2a"
    type: "BatchNorm"
    batch_norm_param {
        use_global_stats: true
    }
    param {
        lr_mult: 0.0
        decay_mult: 0.0
    }
    param {
        lr_mult: 0.0
        decay_mult: 0.0
    }
    param {
        lr_mult: 0.0
        decay_mult: 0.0
    }
}

layer {
    bottom: "res4b10_branch2a"
    top: "res4b10_branch2a"
    name: "scale4b10_branch2a"
    type: "Scale"
    scale_param {
        bias_term: true
    }
    param {
        lr_mult: 0.0
        decay_mult: 0.0
    }
    param {
        lr_mult: 0.0
        decay_mult: 0.0
    }
}

layer {
    top: "res4b10_branch2a"
    bottom: "res4b10_branch2a"
    name: "res4b10_branch2a_relu"
    type: "ReLU"
}

layer {
    bottom: "res4b10_branch2a"
    top: "res4b10_branch2b"
    name: "res4b10_branch2b"
    type: "Convolution"
    convolution_param {
        num_output: 256
        kernel_size: 3
        pad: 1
        stride: 1
        bias_term: false
    }
    param {
        lr_mult: 1.0
    }
}

layer {
    bottom: "res4b10_branch2b"
    top: "res4b10_branch2b"
    name: "bn4b10_branch2b"
    type: "BatchNorm"
    batch_norm_param {
        use_global_stats: true
    }
    param {
        lr_mult: 0.0
        decay_mult: 0.0
    }
    param {
        lr_mult: 0.0
        decay_mult: 0.0
    }
    param {
        lr_mult: 0.0
        decay_mult: 0.0
    }
}

layer {
    bottom: "res4b10_branch2b"
    top: "res4b10_branch2b"
    name: "scale4b10_branch2b"
    type: "Scale"
    scale_param {
        bias_term: true
    }
    param {
        lr_mult: 0.0
        decay_mult: 0.0
    }
    param {
        lr_mult: 0.0
        decay_mult: 0.0
    }
}

layer {
    top: "res4b10_branch2b"
    bottom: "res4b10_branch2b"
    name: "res4b10_branch2b_relu"
    type: "ReLU"
}

layer {
    bottom: "res4b10_branch2b"
    top: "res4b10_branch2c"
    name: "res4b10_branch2c"
    type: "Convolution"
    convolution_param {
        num_output: 1024
        kernel_size: 1
        pad: 0
        stride: 1
        bias_term: false
    }
    param {
        lr_mult: 1.0
    }
}

layer {
    bottom: "res4b10_branch2c"
    top: "res4b10_branch2c"
    name: "bn4b10_branch2c"
    type: "BatchNorm"
    batch_norm_param {
        use_global_stats: true
    }
    param {
        lr_mult: 0.0
        decay_mult: 0.0
    }
    param {
        lr_mult: 0.0
        decay_mult: 0.0
    }
    param {
        lr_mult: 0.0
        decay_mult: 0.0
    }
}

layer {
    bottom: "res4b10_branch2c"
    top: "res4b10_branch2c"
    name: "scale4b10_branch2c"
    type: "Scale"
    scale_param {
        bias_term: true
    }
    param {
        lr_mult: 0.0
        decay_mult: 0.0
    }
    param {
        lr_mult: 0.0
        decay_mult: 0.0
    }
}

layer {
    bottom: "res4b9"
    bottom: "res4b10_branch2c"
    top: "res4b10"
    name: "res4b10"
    type: "Eltwise"
}

layer {
    bottom: "res4b10"
    top: "res4b10"
    name: "res4b10_relu"
    type: "ReLU"
}

layer {
    bottom: "res4b10"
    top: "res4b11_branch2a"
    name: "res4b11_branch2a"
    type: "Convolution"
    convolution_param {
        num_output: 256
        kernel_size: 1
        pad: 0
        stride: 1
        bias_term: false
    }
    param {
        lr_mult: 1.0
    }
}

layer {
    bottom: "res4b11_branch2a"
    top: "res4b11_branch2a"
    name: "bn4b11_branch2a"
    type: "BatchNorm"
    batch_norm_param {
        use_global_stats: true
    }
    param {
        lr_mult: 0.0
        decay_mult: 0.0
    }
    param {
        lr_mult: 0.0
        decay_mult: 0.0
    }
    param {
        lr_mult: 0.0
        decay_mult: 0.0
    }
}

layer {
    bottom: "res4b11_branch2a"
    top: "res4b11_branch2a"
    name: "scale4b11_branch2a"
    type: "Scale"
    scale_param {
        bias_term: true
    }
    param {
        lr_mult: 0.0
        decay_mult: 0.0
    }
    param {
        lr_mult: 0.0
        decay_mult: 0.0
    }
}

layer {
    top: "res4b11_branch2a"
    bottom: "res4b11_branch2a"
    name: "res4b11_branch2a_relu"
    type: "ReLU"
}

layer {
    bottom: "res4b11_branch2a"
    top: "res4b11_branch2b"
    name: "res4b11_branch2b"
    type: "Convolution"
    convolution_param {
        num_output: 256
        kernel_size: 3
        pad: 1
        stride: 1
        bias_term: false
    }
    param {
        lr_mult: 1.0
    }
}

layer {
    bottom: "res4b11_branch2b"
    top: "res4b11_branch2b"
    name: "bn4b11_branch2b"
    type: "BatchNorm"
    batch_norm_param {
        use_global_stats: true
    }
    param {
        lr_mult: 0.0
        decay_mult: 0.0
    }
    param {
        lr_mult: 0.0
        decay_mult: 0.0
    }
    param {
        lr_mult: 0.0
        decay_mult: 0.0
    }
}

layer {
    bottom: "res4b11_branch2b"
    top: "res4b11_branch2b"
    name: "scale4b11_branch2b"
    type: "Scale"
    scale_param {
        bias_term: true
    }
    param {
        lr_mult: 0.0
        decay_mult: 0.0
    }
    param {
        lr_mult: 0.0
        decay_mult: 0.0
    }
}

layer {
    top: "res4b11_branch2b"
    bottom: "res4b11_branch2b"
    name: "res4b11_branch2b_relu"
    type: "ReLU"
}

layer {
    bottom: "res4b11_branch2b"
    top: "res4b11_branch2c"
    name: "res4b11_branch2c"
    type: "Convolution"
    convolution_param {
        num_output: 1024
        kernel_size: 1
        pad: 0
        stride: 1
        bias_term: false
    }
    param {
        lr_mult: 1.0
    }
}

layer {
    bottom: "res4b11_branch2c"
    top: "res4b11_branch2c"
    name: "bn4b11_branch2c"
    type: "BatchNorm"
    batch_norm_param {
        use_global_stats: true
    }
    param {
        lr_mult: 0.0
        decay_mult: 0.0
    }
    param {
        lr_mult: 0.0
        decay_mult: 0.0
    }
    param {
        lr_mult: 0.0
        decay_mult: 0.0
    }
}

layer {
    bottom: "res4b11_branch2c"
    top: "res4b11_branch2c"
    name: "scale4b11_branch2c"
    type: "Scale"
    scale_param {
        bias_term: true
    }
    param {
        lr_mult: 0.0
        decay_mult: 0.0
    }
    param {
        lr_mult: 0.0
        decay_mult: 0.0
    }
}

layer {
    bottom: "res4b10"
    bottom: "res4b11_branch2c"
    top: "res4b11"
    name: "res4b11"
    type: "Eltwise"
}

layer {
    bottom: "res4b11"
    top: "res4b11"
    name: "res4b11_relu"
    type: "ReLU"
}

layer {
    bottom: "res4b11"
    top: "res4b12_branch2a"
    name: "res4b12_branch2a"
    type: "Convolution"
    convolution_param {
        num_output: 256
        kernel_size: 1
        pad: 0
        stride: 1
        bias_term: false
    }
    param {
        lr_mult: 1.0
    }
}

layer {
    bottom: "res4b12_branch2a"
    top: "res4b12_branch2a"
    name: "bn4b12_branch2a"
    type: "BatchNorm"
    batch_norm_param {
        use_global_stats: true
    }
    param {
        lr_mult: 0.0
        decay_mult: 0.0
    }
    param {
        lr_mult: 0.0
        decay_mult: 0.0
    }
    param {
        lr_mult: 0.0
        decay_mult: 0.0
    }
}

layer {
    bottom: "res4b12_branch2a"
    top: "res4b12_branch2a"
    name: "scale4b12_branch2a"
    type: "Scale"
    scale_param {
        bias_term: true
    }
    param {
        lr_mult: 0.0
        decay_mult: 0.0
    }
    param {
        lr_mult: 0.0
        decay_mult: 0.0
    }
}

layer {
    top: "res4b12_branch2a"
    bottom: "res4b12_branch2a"
    name: "res4b12_branch2a_relu"
    type: "ReLU"
}

layer {
    bottom: "res4b12_branch2a"
    top: "res4b12_branch2b"
    name: "res4b12_branch2b"
    type: "Convolution"
    convolution_param {
        num_output: 256
        kernel_size: 3
        pad: 1
        stride: 1
        bias_term: false
    }
    param {
        lr_mult: 1.0
    }
}

layer {
    bottom: "res4b12_branch2b"
    top: "res4b12_branch2b"
    name: "bn4b12_branch2b"
    type: "BatchNorm"
    batch_norm_param {
        use_global_stats: true
    }
    param {
        lr_mult: 0.0
        decay_mult: 0.0
    }
    param {
        lr_mult: 0.0
        decay_mult: 0.0
    }
    param {
        lr_mult: 0.0
        decay_mult: 0.0
    }
}

layer {
    bottom: "res4b12_branch2b"
    top: "res4b12_branch2b"
    name: "scale4b12_branch2b"
    type: "Scale"
    scale_param {
        bias_term: true
    }
    param {
        lr_mult: 0.0
        decay_mult: 0.0
    }
    param {
        lr_mult: 0.0
        decay_mult: 0.0
    }
}

layer {
    top: "res4b12_branch2b"
    bottom: "res4b12_branch2b"
    name: "res4b12_branch2b_relu"
    type: "ReLU"
}

layer {
    bottom: "res4b12_branch2b"
    top: "res4b12_branch2c"
    name: "res4b12_branch2c"
    type: "Convolution"
    convolution_param {
        num_output: 1024
        kernel_size: 1
        pad: 0
        stride: 1
        bias_term: false
    }
    param {
        lr_mult: 1.0
    }
}

layer {
    bottom: "res4b12_branch2c"
    top: "res4b12_branch2c"
    name: "bn4b12_branch2c"
    type: "BatchNorm"
    batch_norm_param {
        use_global_stats: true
    }
    param {
        lr_mult: 0.0
        decay_mult: 0.0
    }
    param {
        lr_mult: 0.0
        decay_mult: 0.0
    }
    param {
        lr_mult: 0.0
        decay_mult: 0.0
    }
}

layer {
    bottom: "res4b12_branch2c"
    top: "res4b12_branch2c"
    name: "scale4b12_branch2c"
    type: "Scale"
    scale_param {
        bias_term: true
    }
    param {
        lr_mult: 0.0
        decay_mult: 0.0
    }
    param {
        lr_mult: 0.0
        decay_mult: 0.0
    }
}

layer {
    bottom: "res4b11"
    bottom: "res4b12_branch2c"
    top: "res4b12"
    name: "res4b12"
    type: "Eltwise"
}

layer {
    bottom: "res4b12"
    top: "res4b12"
    name: "res4b12_relu"
    type: "ReLU"
}

layer {
    bottom: "res4b12"
    top: "res4b13_branch2a"
    name: "res4b13_branch2a"
    type: "Convolution"
    convolution_param {
        num_output: 256
        kernel_size: 1
        pad: 0
        stride: 1
        bias_term: false
    }
    param {
        lr_mult: 1.0
    }
}

layer {
    bottom: "res4b13_branch2a"
    top: "res4b13_branch2a"
    name: "bn4b13_branch2a"
    type: "BatchNorm"
    batch_norm_param {
        use_global_stats: true
    }
    param {
        lr_mult: 0.0
        decay_mult: 0.0
    }
    param {
        lr_mult: 0.0
        decay_mult: 0.0
    }
    param {
        lr_mult: 0.0
        decay_mult: 0.0
    }
}

layer {
    bottom: "res4b13_branch2a"
    top: "res4b13_branch2a"
    name: "scale4b13_branch2a"
    type: "Scale"
    scale_param {
        bias_term: true
    }
    param {
        lr_mult: 0.0
        decay_mult: 0.0
    }
    param {
        lr_mult: 0.0
        decay_mult: 0.0
    }
}

layer {
    top: "res4b13_branch2a"
    bottom: "res4b13_branch2a"
    name: "res4b13_branch2a_relu"
    type: "ReLU"
}

layer {
    bottom: "res4b13_branch2a"
    top: "res4b13_branch2b"
    name: "res4b13_branch2b"
    type: "Convolution"
    convolution_param {
        num_output: 256
        kernel_size: 3
        pad: 1
        stride: 1
        bias_term: false
    }
    param {
        lr_mult: 1.0
    }
}

layer {
    bottom: "res4b13_branch2b"
    top: "res4b13_branch2b"
    name: "bn4b13_branch2b"
    type: "BatchNorm"
    batch_norm_param {
        use_global_stats: true
    }
    param {
        lr_mult: 0.0
        decay_mult: 0.0
    }
    param {
        lr_mult: 0.0
        decay_mult: 0.0
    }
    param {
        lr_mult: 0.0
        decay_mult: 0.0
    }
}

layer {
    bottom: "res4b13_branch2b"
    top: "res4b13_branch2b"
    name: "scale4b13_branch2b"
    type: "Scale"
    scale_param {
        bias_term: true
    }
    param {
        lr_mult: 0.0
        decay_mult: 0.0
    }
    param {
        lr_mult: 0.0
        decay_mult: 0.0
    }
}

layer {
    top: "res4b13_branch2b"
    bottom: "res4b13_branch2b"
    name: "res4b13_branch2b_relu"
    type: "ReLU"
}

layer {
    bottom: "res4b13_branch2b"
    top: "res4b13_branch2c"
    name: "res4b13_branch2c"
    type: "Convolution"
    convolution_param {
        num_output: 1024
        kernel_size: 1
        pad: 0
        stride: 1
        bias_term: false
    }
    param {
        lr_mult: 1.0
    }
}

layer {
    bottom: "res4b13_branch2c"
    top: "res4b13_branch2c"
    name: "bn4b13_branch2c"
    type: "BatchNorm"
    batch_norm_param {
        use_global_stats: true
    }
    param {
        lr_mult: 0.0
        decay_mult: 0.0
    }
    param {
        lr_mult: 0.0
        decay_mult: 0.0
    }
    param {
        lr_mult: 0.0
        decay_mult: 0.0
    }
}

layer {
    bottom: "res4b13_branch2c"
    top: "res4b13_branch2c"
    name: "scale4b13_branch2c"
    type: "Scale"
    scale_param {
        bias_term: true
    }
    param {
        lr_mult: 0.0
        decay_mult: 0.0
    }
    param {
        lr_mult: 0.0
        decay_mult: 0.0
    }
}

layer {
    bottom: "res4b12"
    bottom: "res4b13_branch2c"
    top: "res4b13"
    name: "res4b13"
    type: "Eltwise"
}

layer {
    bottom: "res4b13"
    top: "res4b13"
    name: "res4b13_relu"
    type: "ReLU"
}

layer {
    bottom: "res4b13"
    top: "res4b14_branch2a"
    name: "res4b14_branch2a"
    type: "Convolution"
    convolution_param {
        num_output: 256
        kernel_size: 1
        pad: 0
        stride: 1
        bias_term: false
    }
    param {
        lr_mult: 1.0
    }
}

layer {
    bottom: "res4b14_branch2a"
    top: "res4b14_branch2a"
    name: "bn4b14_branch2a"
    type: "BatchNorm"
    batch_norm_param {
        use_global_stats: true
    }
    param {
        lr_mult: 0.0
        decay_mult: 0.0
    }
    param {
        lr_mult: 0.0
        decay_mult: 0.0
    }
    param {
        lr_mult: 0.0
        decay_mult: 0.0
    }
}

layer {
    bottom: "res4b14_branch2a"
    top: "res4b14_branch2a"
    name: "scale4b14_branch2a"
    type: "Scale"
    scale_param {
        bias_term: true
    }
    param {
        lr_mult: 0.0
        decay_mult: 0.0
    }
    param {
        lr_mult: 0.0
        decay_mult: 0.0
    }
}

layer {
    top: "res4b14_branch2a"
    bottom: "res4b14_branch2a"
    name: "res4b14_branch2a_relu"
    type: "ReLU"
}

layer {
    bottom: "res4b14_branch2a"
    top: "res4b14_branch2b"
    name: "res4b14_branch2b"
    type: "Convolution"
    convolution_param {
        num_output: 256
        kernel_size: 3
        pad: 1
        stride: 1
        bias_term: false
    }
    param {
        lr_mult: 1.0
    }
}

layer {
    bottom: "res4b14_branch2b"
    top: "res4b14_branch2b"
    name: "bn4b14_branch2b"
    type: "BatchNorm"
    batch_norm_param {
        use_global_stats: true
    }
    param {
        lr_mult: 0.0
        decay_mult: 0.0
    }
    param {
        lr_mult: 0.0
        decay_mult: 0.0
    }
    param {
        lr_mult: 0.0
        decay_mult: 0.0
    }
}

layer {
    bottom: "res4b14_branch2b"
    top: "res4b14_branch2b"
    name: "scale4b14_branch2b"
    type: "Scale"
    scale_param {
        bias_term: true
    }
    param {
        lr_mult: 0.0
        decay_mult: 0.0
    }
    param {
        lr_mult: 0.0
        decay_mult: 0.0
    }
}

layer {
    top: "res4b14_branch2b"
    bottom: "res4b14_branch2b"
    name: "res4b14_branch2b_relu"
    type: "ReLU"
}

layer {
    bottom: "res4b14_branch2b"
    top: "res4b14_branch2c"
    name: "res4b14_branch2c"
    type: "Convolution"
    convolution_param {
        num_output: 1024
        kernel_size: 1
        pad: 0
        stride: 1
        bias_term: false
    }
    param {
        lr_mult: 1.0
    }
}

layer {
    bottom: "res4b14_branch2c"
    top: "res4b14_branch2c"
    name: "bn4b14_branch2c"
    type: "BatchNorm"
    batch_norm_param {
        use_global_stats: true
    }
    param {
        lr_mult: 0.0
        decay_mult: 0.0
    }
    param {
        lr_mult: 0.0
        decay_mult: 0.0
    }
    param {
        lr_mult: 0.0
        decay_mult: 0.0
    }
}

layer {
    bottom: "res4b14_branch2c"
    top: "res4b14_branch2c"
    name: "scale4b14_branch2c"
    type: "Scale"
    scale_param {
        bias_term: true
    }
    param {
        lr_mult: 0.0
        decay_mult: 0.0
    }
    param {
        lr_mult: 0.0
        decay_mult: 0.0
    }
}

layer {
    bottom: "res4b13"
    bottom: "res4b14_branch2c"
    top: "res4b14"
    name: "res4b14"
    type: "Eltwise"
}

layer {
    bottom: "res4b14"
    top: "res4b14"
    name: "res4b14_relu"
    type: "ReLU"
}

layer {
    bottom: "res4b14"
    top: "res4b15_branch2a"
    name: "res4b15_branch2a"
    type: "Convolution"
    convolution_param {
        num_output: 256
        kernel_size: 1
        pad: 0
        stride: 1
        bias_term: false
    }
    param {
        lr_mult: 1.0
    }
}

layer {
    bottom: "res4b15_branch2a"
    top: "res4b15_branch2a"
    name: "bn4b15_branch2a"
    type: "BatchNorm"
    batch_norm_param {
        use_global_stats: true
    }
    param {
        lr_mult: 0.0
        decay_mult: 0.0
    }
    param {
        lr_mult: 0.0
        decay_mult: 0.0
    }
    param {
        lr_mult: 0.0
        decay_mult: 0.0
    }
}

layer {
    bottom: "res4b15_branch2a"
    top: "res4b15_branch2a"
    name: "scale4b15_branch2a"
    type: "Scale"
    scale_param {
        bias_term: true
    }
    param {
        lr_mult: 0.0
        decay_mult: 0.0
    }
    param {
        lr_mult: 0.0
        decay_mult: 0.0
    }
}

layer {
    top: "res4b15_branch2a"
    bottom: "res4b15_branch2a"
    name: "res4b15_branch2a_relu"
    type: "ReLU"
}

layer {
    bottom: "res4b15_branch2a"
    top: "res4b15_branch2b"
    name: "res4b15_branch2b"
    type: "Convolution"
    convolution_param {
        num_output: 256
        kernel_size: 3
        pad: 1
        stride: 1
        bias_term: false
    }
    param {
        lr_mult: 1.0
    }
}

layer {
    bottom: "res4b15_branch2b"
    top: "res4b15_branch2b"
    name: "bn4b15_branch2b"
    type: "BatchNorm"
    batch_norm_param {
        use_global_stats: true
    }
    param {
        lr_mult: 0.0
        decay_mult: 0.0
    }
    param {
        lr_mult: 0.0
        decay_mult: 0.0
    }
    param {
        lr_mult: 0.0
        decay_mult: 0.0
    }
}

layer {
    bottom: "res4b15_branch2b"
    top: "res4b15_branch2b"
    name: "scale4b15_branch2b"
    type: "Scale"
    scale_param {
        bias_term: true
    }
    param {
        lr_mult: 0.0
        decay_mult: 0.0
    }
    param {
        lr_mult: 0.0
        decay_mult: 0.0
    }
}

layer {
    top: "res4b15_branch2b"
    bottom: "res4b15_branch2b"
    name: "res4b15_branch2b_relu"
    type: "ReLU"
}

layer {
    bottom: "res4b15_branch2b"
    top: "res4b15_branch2c"
    name: "res4b15_branch2c"
    type: "Convolution"
    convolution_param {
        num_output: 1024
        kernel_size: 1
        pad: 0
        stride: 1
        bias_term: false
    }
    param {
        lr_mult: 1.0
    }
}

layer {
    bottom: "res4b15_branch2c"
    top: "res4b15_branch2c"
    name: "bn4b15_branch2c"
    type: "BatchNorm"
    batch_norm_param {
        use_global_stats: true
    }
    param {
        lr_mult: 0.0
        decay_mult: 0.0
    }
    param {
        lr_mult: 0.0
        decay_mult: 0.0
    }
    param {
        lr_mult: 0.0
        decay_mult: 0.0
    }
}

layer {
    bottom: "res4b15_branch2c"
    top: "res4b15_branch2c"
    name: "scale4b15_branch2c"
    type: "Scale"
    scale_param {
        bias_term: true
    }
    param {
        lr_mult: 0.0
        decay_mult: 0.0
    }
    param {
        lr_mult: 0.0
        decay_mult: 0.0
    }
}

layer {
    bottom: "res4b14"
    bottom: "res4b15_branch2c"
    top: "res4b15"
    name: "res4b15"
    type: "Eltwise"
}

layer {
    bottom: "res4b15"
    top: "res4b15"
    name: "res4b15_relu"
    type: "ReLU"
}

layer {
    bottom: "res4b15"
    top: "res4b16_branch2a"
    name: "res4b16_branch2a"
    type: "Convolution"
    convolution_param {
        num_output: 256
        kernel_size: 1
        pad: 0
        stride: 1
        bias_term: false
    }
    param {
        lr_mult: 1.0
    }
}

layer {
    bottom: "res4b16_branch2a"
    top: "res4b16_branch2a"
    name: "bn4b16_branch2a"
    type: "BatchNorm"
    batch_norm_param {
        use_global_stats: true
    }
    param {
        lr_mult: 0.0
        decay_mult: 0.0
    }
    param {
        lr_mult: 0.0
        decay_mult: 0.0
    }
    param {
        lr_mult: 0.0
        decay_mult: 0.0
    }
}

layer {
    bottom: "res4b16_branch2a"
    top: "res4b16_branch2a"
    name: "scale4b16_branch2a"
    type: "Scale"
    scale_param {
        bias_term: true
    }
    param {
        lr_mult: 0.0
        decay_mult: 0.0
    }
    param {
        lr_mult: 0.0
        decay_mult: 0.0
    }
}

layer {
    top: "res4b16_branch2a"
    bottom: "res4b16_branch2a"
    name: "res4b16_branch2a_relu"
    type: "ReLU"
}

layer {
    bottom: "res4b16_branch2a"
    top: "res4b16_branch2b"
    name: "res4b16_branch2b"
    type: "Convolution"
    convolution_param {
        num_output: 256
        kernel_size: 3
        pad: 1
        stride: 1
        bias_term: false
    }
    param {
        lr_mult: 1.0
    }
}

layer {
    bottom: "res4b16_branch2b"
    top: "res4b16_branch2b"
    name: "bn4b16_branch2b"
    type: "BatchNorm"
    batch_norm_param {
        use_global_stats: true
    }
    param {
        lr_mult: 0.0
        decay_mult: 0.0
    }
    param {
        lr_mult: 0.0
        decay_mult: 0.0
    }
    param {
        lr_mult: 0.0
        decay_mult: 0.0
    }
}

layer {
    bottom: "res4b16_branch2b"
    top: "res4b16_branch2b"
    name: "scale4b16_branch2b"
    type: "Scale"
    scale_param {
        bias_term: true
    }
    param {
        lr_mult: 0.0
        decay_mult: 0.0
    }
    param {
        lr_mult: 0.0
        decay_mult: 0.0
    }
}

layer {
    top: "res4b16_branch2b"
    bottom: "res4b16_branch2b"
    name: "res4b16_branch2b_relu"
    type: "ReLU"
}

layer {
    bottom: "res4b16_branch2b"
    top: "res4b16_branch2c"
    name: "res4b16_branch2c"
    type: "Convolution"
    convolution_param {
        num_output: 1024
        kernel_size: 1
        pad: 0
        stride: 1
        bias_term: false
    }
    param {
        lr_mult: 1.0
    }
}

layer {
    bottom: "res4b16_branch2c"
    top: "res4b16_branch2c"
    name: "bn4b16_branch2c"
    type: "BatchNorm"
    batch_norm_param {
        use_global_stats: true
    }
    param {
        lr_mult: 0.0
        decay_mult: 0.0
    }
    param {
        lr_mult: 0.0
        decay_mult: 0.0
    }
    param {
        lr_mult: 0.0
        decay_mult: 0.0
    }
}

layer {
    bottom: "res4b16_branch2c"
    top: "res4b16_branch2c"
    name: "scale4b16_branch2c"
    type: "Scale"
    scale_param {
        bias_term: true
    }
    param {
        lr_mult: 0.0
        decay_mult: 0.0
    }
    param {
        lr_mult: 0.0
        decay_mult: 0.0
    }
}

layer {
    bottom: "res4b15"
    bottom: "res4b16_branch2c"
    top: "res4b16"
    name: "res4b16"
    type: "Eltwise"
}

layer {
    bottom: "res4b16"
    top: "res4b16"
    name: "res4b16_relu"
    type: "ReLU"
}

layer {
    bottom: "res4b16"
    top: "res4b17_branch2a"
    name: "res4b17_branch2a"
    type: "Convolution"
    convolution_param {
        num_output: 256
        kernel_size: 1
        pad: 0
        stride: 1
        bias_term: false
    }
    param {
        lr_mult: 1.0
    }
}

layer {
    bottom: "res4b17_branch2a"
    top: "res4b17_branch2a"
    name: "bn4b17_branch2a"
    type: "BatchNorm"
    batch_norm_param {
        use_global_stats: true
    }
    param {
        lr_mult: 0.0
        decay_mult: 0.0
    }
    param {
        lr_mult: 0.0
        decay_mult: 0.0
    }
    param {
        lr_mult: 0.0
        decay_mult: 0.0
    }
}

layer {
    bottom: "res4b17_branch2a"
    top: "res4b17_branch2a"
    name: "scale4b17_branch2a"
    type: "Scale"
    scale_param {
        bias_term: true
    }
    param {
        lr_mult: 0.0
        decay_mult: 0.0
    }
    param {
        lr_mult: 0.0
        decay_mult: 0.0
    }
}

layer {
    top: "res4b17_branch2a"
    bottom: "res4b17_branch2a"
    name: "res4b17_branch2a_relu"
    type: "ReLU"
}

layer {
    bottom: "res4b17_branch2a"
    top: "res4b17_branch2b"
    name: "res4b17_branch2b"
    type: "Convolution"
    convolution_param {
        num_output: 256
        kernel_size: 3
        pad: 1
        stride: 1
        bias_term: false
    }
    param {
        lr_mult: 1.0
    }
}

layer {
    bottom: "res4b17_branch2b"
    top: "res4b17_branch2b"
    name: "bn4b17_branch2b"
    type: "BatchNorm"
    batch_norm_param {
        use_global_stats: true
    }
    param {
        lr_mult: 0.0
        decay_mult: 0.0
    }
    param {
        lr_mult: 0.0
        decay_mult: 0.0
    }
    param {
        lr_mult: 0.0
        decay_mult: 0.0
    }
}

layer {
    bottom: "res4b17_branch2b"
    top: "res4b17_branch2b"
    name: "scale4b17_branch2b"
    type: "Scale"
    scale_param {
        bias_term: true
    }
    param {
        lr_mult: 0.0
        decay_mult: 0.0
    }
    param {
        lr_mult: 0.0
        decay_mult: 0.0
    }
}

layer {
    top: "res4b17_branch2b"
    bottom: "res4b17_branch2b"
    name: "res4b17_branch2b_relu"
    type: "ReLU"
}

layer {
    bottom: "res4b17_branch2b"
    top: "res4b17_branch2c"
    name: "res4b17_branch2c"
    type: "Convolution"
    convolution_param {
        num_output: 1024
        kernel_size: 1
        pad: 0
        stride: 1
        bias_term: false
    }
    param {
        lr_mult: 1.0
    }
}

layer {
    bottom: "res4b17_branch2c"
    top: "res4b17_branch2c"
    name: "bn4b17_branch2c"
    type: "BatchNorm"
    batch_norm_param {
        use_global_stats: true
    }
    param {
        lr_mult: 0.0
        decay_mult: 0.0
    }
    param {
        lr_mult: 0.0
        decay_mult: 0.0
    }
    param {
        lr_mult: 0.0
        decay_mult: 0.0
    }
}

layer {
    bottom: "res4b17_branch2c"
    top: "res4b17_branch2c"
    name: "scale4b17_branch2c"
    type: "Scale"
    scale_param {
        bias_term: true
    }
    param {
        lr_mult: 0.0
        decay_mult: 0.0
    }
    param {
        lr_mult: 0.0
        decay_mult: 0.0
    }
}

layer {
    bottom: "res4b16"
    bottom: "res4b17_branch2c"
    top: "res4b17"
    name: "res4b17"
    type: "Eltwise"
}

layer {
    bottom: "res4b17"
    top: "res4b17"
    name: "res4b17_relu"
    type: "ReLU"
}

layer {
    bottom: "res4b17"
    top: "res4b18_branch2a"
    name: "res4b18_branch2a"
    type: "Convolution"
    convolution_param {
        num_output: 256
        kernel_size: 1
        pad: 0
        stride: 1
        bias_term: false
    }
    param {
        lr_mult: 1.0
    }
}

layer {
    bottom: "res4b18_branch2a"
    top: "res4b18_branch2a"
    name: "bn4b18_branch2a"
    type: "BatchNorm"
    batch_norm_param {
        use_global_stats: true
    }
    param {
        lr_mult: 0.0
        decay_mult: 0.0
    }
    param {
        lr_mult: 0.0
        decay_mult: 0.0
    }
    param {
        lr_mult: 0.0
        decay_mult: 0.0
    }
}

layer {
    bottom: "res4b18_branch2a"
    top: "res4b18_branch2a"
    name: "scale4b18_branch2a"
    type: "Scale"
    scale_param {
        bias_term: true
    }
    param {
        lr_mult: 0.0
        decay_mult: 0.0
    }
    param {
        lr_mult: 0.0
        decay_mult: 0.0
    }
}

layer {
    top: "res4b18_branch2a"
    bottom: "res4b18_branch2a"
    name: "res4b18_branch2a_relu"
    type: "ReLU"
}

layer {
    bottom: "res4b18_branch2a"
    top: "res4b18_branch2b"
    name: "res4b18_branch2b"
    type: "Convolution"
    convolution_param {
        num_output: 256
        kernel_size: 3
        pad: 1
        stride: 1
        bias_term: false
    }
    param {
        lr_mult: 1.0
    }
}

layer {
    bottom: "res4b18_branch2b"
    top: "res4b18_branch2b"
    name: "bn4b18_branch2b"
    type: "BatchNorm"
    batch_norm_param {
        use_global_stats: true
    }
    param {
        lr_mult: 0.0
        decay_mult: 0.0
    }
    param {
        lr_mult: 0.0
        decay_mult: 0.0
    }
    param {
        lr_mult: 0.0
        decay_mult: 0.0
    }
}

layer {
    bottom: "res4b18_branch2b"
    top: "res4b18_branch2b"
    name: "scale4b18_branch2b"
    type: "Scale"
    scale_param {
        bias_term: true
    }
    param {
        lr_mult: 0.0
        decay_mult: 0.0
    }
    param {
        lr_mult: 0.0
        decay_mult: 0.0
    }
}

layer {
    top: "res4b18_branch2b"
    bottom: "res4b18_branch2b"
    name: "res4b18_branch2b_relu"
    type: "ReLU"
}

layer {
    bottom: "res4b18_branch2b"
    top: "res4b18_branch2c"
    name: "res4b18_branch2c"
    type: "Convolution"
    convolution_param {
        num_output: 1024
        kernel_size: 1
        pad: 0
        stride: 1
        bias_term: false
    }
    param {
        lr_mult: 1.0
    }
}

layer {
    bottom: "res4b18_branch2c"
    top: "res4b18_branch2c"
    name: "bn4b18_branch2c"
    type: "BatchNorm"
    batch_norm_param {
        use_global_stats: true
    }
    param {
        lr_mult: 0.0
        decay_mult: 0.0
    }
    param {
        lr_mult: 0.0
        decay_mult: 0.0
    }
    param {
        lr_mult: 0.0
        decay_mult: 0.0
    }
}

layer {
    bottom: "res4b18_branch2c"
    top: "res4b18_branch2c"
    name: "scale4b18_branch2c"
    type: "Scale"
    scale_param {
        bias_term: true
    }
    param {
        lr_mult: 0.0
        decay_mult: 0.0
    }
    param {
        lr_mult: 0.0
        decay_mult: 0.0
    }
}

layer {
    bottom: "res4b17"
    bottom: "res4b18_branch2c"
    top: "res4b18"
    name: "res4b18"
    type: "Eltwise"
}

layer {
    bottom: "res4b18"
    top: "res4b18"
    name: "res4b18_relu"
    type: "ReLU"
}

layer {
    bottom: "res4b18"
    top: "res4b19_branch2a"
    name: "res4b19_branch2a"
    type: "Convolution"
    convolution_param {
        num_output: 256
        kernel_size: 1
        pad: 0
        stride: 1
        bias_term: false
    }
    param {
        lr_mult: 1.0
    }
}

layer {
    bottom: "res4b19_branch2a"
    top: "res4b19_branch2a"
    name: "bn4b19_branch2a"
    type: "BatchNorm"
    batch_norm_param {
        use_global_stats: true
    }
    param {
        lr_mult: 0.0
        decay_mult: 0.0
    }
    param {
        lr_mult: 0.0
        decay_mult: 0.0
    }
    param {
        lr_mult: 0.0
        decay_mult: 0.0
    }
}

layer {
    bottom: "res4b19_branch2a"
    top: "res4b19_branch2a"
    name: "scale4b19_branch2a"
    type: "Scale"
    scale_param {
        bias_term: true
    }
    param {
        lr_mult: 0.0
        decay_mult: 0.0
    }
    param {
        lr_mult: 0.0
        decay_mult: 0.0
    }
}

layer {
    top: "res4b19_branch2a"
    bottom: "res4b19_branch2a"
    name: "res4b19_branch2a_relu"
    type: "ReLU"
}

layer {
    bottom: "res4b19_branch2a"
    top: "res4b19_branch2b"
    name: "res4b19_branch2b"
    type: "Convolution"
    convolution_param {
        num_output: 256
        kernel_size: 3
        pad: 1
        stride: 1
        bias_term: false
    }
    param {
        lr_mult: 1.0
    }
}

layer {
    bottom: "res4b19_branch2b"
    top: "res4b19_branch2b"
    name: "bn4b19_branch2b"
    type: "BatchNorm"
    batch_norm_param {
        use_global_stats: true
    }
    param {
        lr_mult: 0.0
        decay_mult: 0.0
    }
    param {
        lr_mult: 0.0
        decay_mult: 0.0
    }
    param {
        lr_mult: 0.0
        decay_mult: 0.0
    }
}

layer {
    bottom: "res4b19_branch2b"
    top: "res4b19_branch2b"
    name: "scale4b19_branch2b"
    type: "Scale"
    scale_param {
        bias_term: true
    }
    param {
        lr_mult: 0.0
        decay_mult: 0.0
    }
    param {
        lr_mult: 0.0
        decay_mult: 0.0
    }
}

layer {
    top: "res4b19_branch2b"
    bottom: "res4b19_branch2b"
    name: "res4b19_branch2b_relu"
    type: "ReLU"
}

layer {
    bottom: "res4b19_branch2b"
    top: "res4b19_branch2c"
    name: "res4b19_branch2c"
    type: "Convolution"
    convolution_param {
        num_output: 1024
        kernel_size: 1
        pad: 0
        stride: 1
        bias_term: false
    }
    param {
        lr_mult: 1.0
    }
}

layer {
    bottom: "res4b19_branch2c"
    top: "res4b19_branch2c"
    name: "bn4b19_branch2c"
    type: "BatchNorm"
    batch_norm_param {
        use_global_stats: true
    }
    param {
        lr_mult: 0.0
        decay_mult: 0.0
    }
    param {
        lr_mult: 0.0
        decay_mult: 0.0
    }
    param {
        lr_mult: 0.0
        decay_mult: 0.0
    }
}

layer {
    bottom: "res4b19_branch2c"
    top: "res4b19_branch2c"
    name: "scale4b19_branch2c"
    type: "Scale"
    scale_param {
        bias_term: true
    }
    param {
        lr_mult: 0.0
        decay_mult: 0.0
    }
    param {
        lr_mult: 0.0
        decay_mult: 0.0
    }
}

layer {
    bottom: "res4b18"
    bottom: "res4b19_branch2c"
    top: "res4b19"
    name: "res4b19"
    type: "Eltwise"
}

layer {
    bottom: "res4b19"
    top: "res4b19"
    name: "res4b19_relu"
    type: "ReLU"
}

layer {
    bottom: "res4b19"
    top: "res4b20_branch2a"
    name: "res4b20_branch2a"
    type: "Convolution"
    convolution_param {
        num_output: 256
        kernel_size: 1
        pad: 0
        stride: 1
        bias_term: false
    }
    param {
        lr_mult: 1.0
    }
}

layer {
    bottom: "res4b20_branch2a"
    top: "res4b20_branch2a"
    name: "bn4b20_branch2a"
    type: "BatchNorm"
    batch_norm_param {
        use_global_stats: true
    }
    param {
        lr_mult: 0.0
        decay_mult: 0.0
    }
    param {
        lr_mult: 0.0
        decay_mult: 0.0
    }
    param {
        lr_mult: 0.0
        decay_mult: 0.0
    }
}

layer {
    bottom: "res4b20_branch2a"
    top: "res4b20_branch2a"
    name: "scale4b20_branch2a"
    type: "Scale"
    scale_param {
        bias_term: true
    }
    param {
        lr_mult: 0.0
        decay_mult: 0.0
    }
    param {
        lr_mult: 0.0
        decay_mult: 0.0
    }
}

layer {
    top: "res4b20_branch2a"
    bottom: "res4b20_branch2a"
    name: "res4b20_branch2a_relu"
    type: "ReLU"
}

layer {
    bottom: "res4b20_branch2a"
    top: "res4b20_branch2b"
    name: "res4b20_branch2b"
    type: "Convolution"
    convolution_param {
        num_output: 256
        kernel_size: 3
        pad: 1
        stride: 1
        bias_term: false
    }
    param {
        lr_mult: 1.0
    }
}

layer {
    bottom: "res4b20_branch2b"
    top: "res4b20_branch2b"
    name: "bn4b20_branch2b"
    type: "BatchNorm"
    batch_norm_param {
        use_global_stats: true
    }
    param {
        lr_mult: 0.0
        decay_mult: 0.0
    }
    param {
        lr_mult: 0.0
        decay_mult: 0.0
    }
    param {
        lr_mult: 0.0
        decay_mult: 0.0
    }
}

layer {
    bottom: "res4b20_branch2b"
    top: "res4b20_branch2b"
    name: "scale4b20_branch2b"
    type: "Scale"
    scale_param {
        bias_term: true
    }
    param {
        lr_mult: 0.0
        decay_mult: 0.0
    }
    param {
        lr_mult: 0.0
        decay_mult: 0.0
    }
}

layer {
    top: "res4b20_branch2b"
    bottom: "res4b20_branch2b"
    name: "res4b20_branch2b_relu"
    type: "ReLU"
}

layer {
    bottom: "res4b20_branch2b"
    top: "res4b20_branch2c"
    name: "res4b20_branch2c"
    type: "Convolution"
    convolution_param {
        num_output: 1024
        kernel_size: 1
        pad: 0
        stride: 1
        bias_term: false
    }
    param {
        lr_mult: 1.0
    }
}

layer {
    bottom: "res4b20_branch2c"
    top: "res4b20_branch2c"
    name: "bn4b20_branch2c"
    type: "BatchNorm"
    batch_norm_param {
        use_global_stats: true
    }
    param {
        lr_mult: 0.0
        decay_mult: 0.0
    }
    param {
        lr_mult: 0.0
        decay_mult: 0.0
    }
    param {
        lr_mult: 0.0
        decay_mult: 0.0
    }
}

layer {
    bottom: "res4b20_branch2c"
    top: "res4b20_branch2c"
    name: "scale4b20_branch2c"
    type: "Scale"
    scale_param {
        bias_term: true
    }
    param {
        lr_mult: 0.0
        decay_mult: 0.0
    }
    param {
        lr_mult: 0.0
        decay_mult: 0.0
    }
}

layer {
    bottom: "res4b19"
    bottom: "res4b20_branch2c"
    top: "res4b20"
    name: "res4b20"
    type: "Eltwise"
}

layer {
    bottom: "res4b20"
    top: "res4b20"
    name: "res4b20_relu"
    type: "ReLU"
}

layer {
    bottom: "res4b20"
    top: "res4b21_branch2a"
    name: "res4b21_branch2a"
    type: "Convolution"
    convolution_param {
        num_output: 256
        kernel_size: 1
        pad: 0
        stride: 1
        bias_term: false
    }
    param {
        lr_mult: 1.0
    }
}

layer {
    bottom: "res4b21_branch2a"
    top: "res4b21_branch2a"
    name: "bn4b21_branch2a"
    type: "BatchNorm"
    batch_norm_param {
        use_global_stats: true
    }
    param {
        lr_mult: 0.0
        decay_mult: 0.0
    }
    param {
        lr_mult: 0.0
        decay_mult: 0.0
    }
    param {
        lr_mult: 0.0
        decay_mult: 0.0
    }
}

layer {
    bottom: "res4b21_branch2a"
    top: "res4b21_branch2a"
    name: "scale4b21_branch2a"
    type: "Scale"
    scale_param {
        bias_term: true
    }
    param {
        lr_mult: 0.0
        decay_mult: 0.0
    }
    param {
        lr_mult: 0.0
        decay_mult: 0.0
    }
}

layer {
    top: "res4b21_branch2a"
    bottom: "res4b21_branch2a"
    name: "res4b21_branch2a_relu"
    type: "ReLU"
}

layer {
    bottom: "res4b21_branch2a"
    top: "res4b21_branch2b"
    name: "res4b21_branch2b"
    type: "Convolution"
    convolution_param {
        num_output: 256
        kernel_size: 3
        pad: 1
        stride: 1
        bias_term: false
    }
    param {
        lr_mult: 1.0
    }
}

layer {
    bottom: "res4b21_branch2b"
    top: "res4b21_branch2b"
    name: "bn4b21_branch2b"
    type: "BatchNorm"
    batch_norm_param {
        use_global_stats: true
    }
    param {
        lr_mult: 0.0
        decay_mult: 0.0
    }
    param {
        lr_mult: 0.0
        decay_mult: 0.0
    }
    param {
        lr_mult: 0.0
        decay_mult: 0.0
    }
}

layer {
    bottom: "res4b21_branch2b"
    top: "res4b21_branch2b"
    name: "scale4b21_branch2b"
    type: "Scale"
    scale_param {
        bias_term: true
    }
    param {
        lr_mult: 0.0
        decay_mult: 0.0
    }
    param {
        lr_mult: 0.0
        decay_mult: 0.0
    }
}

layer {
    top: "res4b21_branch2b"
    bottom: "res4b21_branch2b"
    name: "res4b21_branch2b_relu"
    type: "ReLU"
}

layer {
    bottom: "res4b21_branch2b"
    top: "res4b21_branch2c"
    name: "res4b21_branch2c"
    type: "Convolution"
    convolution_param {
        num_output: 1024
        kernel_size: 1
        pad: 0
        stride: 1
        bias_term: false
    }
    param {
        lr_mult: 1.0
    }
}

layer {
    bottom: "res4b21_branch2c"
    top: "res4b21_branch2c"
    name: "bn4b21_branch2c"
    type: "BatchNorm"
    batch_norm_param {
        use_global_stats: true
    }
    param {
        lr_mult: 0.0
        decay_mult: 0.0
    }
    param {
        lr_mult: 0.0
        decay_mult: 0.0
    }
    param {
        lr_mult: 0.0
        decay_mult: 0.0
    }
}

layer {
    bottom: "res4b21_branch2c"
    top: "res4b21_branch2c"
    name: "scale4b21_branch2c"
    type: "Scale"
    scale_param {
        bias_term: true
    }
    param {
        lr_mult: 0.0
        decay_mult: 0.0
    }
    param {
        lr_mult: 0.0
        decay_mult: 0.0
    }
}

layer {
    bottom: "res4b20"
    bottom: "res4b21_branch2c"
    top: "res4b21"
    name: "res4b21"
    type: "Eltwise"
}

layer {
    bottom: "res4b21"
    top: "res4b21"
    name: "res4b21_relu"
    type: "ReLU"
}

layer {
    bottom: "res4b21"
    top: "res4b22_branch2a"
    name: "res4b22_branch2a"
    type: "Convolution"
    convolution_param {
        num_output: 256
        kernel_size: 1
        pad: 0
        stride: 1
        bias_term: false
    }
    param {
        lr_mult: 1.0
    }
}

layer {
    bottom: "res4b22_branch2a"
    top: "res4b22_branch2a"
    name: "bn4b22_branch2a"
    type: "BatchNorm"
    batch_norm_param {
        use_global_stats: true
    }
    param {
        lr_mult: 0.0
        decay_mult: 0.0
    }
    param {
        lr_mult: 0.0
        decay_mult: 0.0
    }
    param {
        lr_mult: 0.0
        decay_mult: 0.0
    }
}

layer {
    bottom: "res4b22_branch2a"
    top: "res4b22_branch2a"
    name: "scale4b22_branch2a"
    type: "Scale"
    scale_param {
        bias_term: true
    }
    param {
        lr_mult: 0.0
        decay_mult: 0.0
    }
    param {
        lr_mult: 0.0
        decay_mult: 0.0
    }
}

layer {
    top: "res4b22_branch2a"
    bottom: "res4b22_branch2a"
    name: "res4b22_branch2a_relu"
    type: "ReLU"
}

layer {
    bottom: "res4b22_branch2a"
    top: "res4b22_branch2b"
    name: "res4b22_branch2b"
    type: "Convolution"
    convolution_param {
        num_output: 256
        kernel_size: 3
        pad: 1
        stride: 1
        bias_term: false
    }
    param {
        lr_mult: 1.0
    }
}

layer {
    bottom: "res4b22_branch2b"
    top: "res4b22_branch2b"
    name: "bn4b22_branch2b"
    type: "BatchNorm"
    batch_norm_param {
        use_global_stats: true
    }
    param {
        lr_mult: 0.0
        decay_mult: 0.0
    }
    param {
        lr_mult: 0.0
        decay_mult: 0.0
    }
    param {
        lr_mult: 0.0
        decay_mult: 0.0
    }
}

layer {
    bottom: "res4b22_branch2b"
    top: "res4b22_branch2b"
    name: "scale4b22_branch2b"
    type: "Scale"
    scale_param {
        bias_term: true
    }
    param {
        lr_mult: 0.0
        decay_mult: 0.0
    }
    param {
        lr_mult: 0.0
        decay_mult: 0.0
    }
}

layer {
    top: "res4b22_branch2b"
    bottom: "res4b22_branch2b"
    name: "res4b22_branch2b_relu"
    type: "ReLU"
}

layer {
    bottom: "res4b22_branch2b"
    top: "res4b22_branch2c"
    name: "res4b22_branch2c"
    type: "Convolution"
    convolution_param {
        num_output: 1024
        kernel_size: 1
        pad: 0
        stride: 1
        bias_term: false
    }
    param {
        lr_mult: 1.0
    }
}

layer {
    bottom: "res4b22_branch2c"
    top: "res4b22_branch2c"
    name: "bn4b22_branch2c"
    type: "BatchNorm"
    batch_norm_param {
        use_global_stats: true
    }
    param {
        lr_mult: 0.0
        decay_mult: 0.0
    }
    param {
        lr_mult: 0.0
        decay_mult: 0.0
    }
    param {
        lr_mult: 0.0
        decay_mult: 0.0
    }
}

layer {
    bottom: "res4b22_branch2c"
    top: "res4b22_branch2c"
    name: "scale4b22_branch2c"
    type: "Scale"
    scale_param {
        bias_term: true
    }
    param {
        lr_mult: 0.0
        decay_mult: 0.0
    }
    param {
        lr_mult: 0.0
        decay_mult: 0.0
    }
}

layer {
    bottom: "res4b21"
    bottom: "res4b22_branch2c"
    top: "res4b22"
    name: "res4b22"
    type: "Eltwise"
}

layer {
    bottom: "res4b22"
    top: "res4b22"
    name: "res4b22_relu"
    type: "ReLU"
}

layer {
    bottom: "res4b22"
    top: "res5a_branch1"
    name: "res5a_branch1"
    type: "Convolution"
    convolution_param {
        num_output: 2048
        kernel_size: 1
        pad: 0
        stride: 1
        bias_term: false
    }
    param {
        lr_mult: 1.0
    }
}

layer {
    bottom: "res5a_branch1"
    top: "res5a_branch1"
    name: "bn5a_branch1"
    type: "BatchNorm"
    batch_norm_param {
        use_global_stats: true
    }
    param {
        lr_mult: 0.0
        decay_mult: 0.0
    }
    param {
        lr_mult: 0.0
        decay_mult: 0.0
    }
    param {
        lr_mult: 0.0
        decay_mult: 0.0
    }
}

layer {
    bottom: "res5a_branch1"
    top: "res5a_branch1"
    name: "scale5a_branch1"
    type: "Scale"
    scale_param {
        bias_term: true
    }
    param {
        lr_mult: 0.0
        decay_mult: 0.0
    }
    param {
        lr_mult: 0.0
        decay_mult: 0.0
    }
}

layer {
    bottom: "res4b22"
    top: "res5a_branch2a"
    name: "res5a_branch2a"
    type: "Convolution"
    convolution_param {
        num_output: 512
        kernel_size: 1
        pad: 0
        stride: 1
        bias_term: false
    }
    param {
        lr_mult: 1.0
    }
}

layer {
    bottom: "res5a_branch2a"
    top: "res5a_branch2a"
    name: "bn5a_branch2a"
    type: "BatchNorm"
    batch_norm_param {
        use_global_stats: true
    }
    param {
        lr_mult: 0.0
        decay_mult: 0.0
    }
    param {
        lr_mult: 0.0
        decay_mult: 0.0
    }
    param {
        lr_mult: 0.0
        decay_mult: 0.0
    }
}

layer {
    bottom: "res5a_branch2a"
    top: "res5a_branch2a"
    name: "scale5a_branch2a"
    type: "Scale"
    scale_param {
        bias_term: true
    }
    param {
        lr_mult: 0.0
        decay_mult: 0.0
    }
    param {
        lr_mult: 0.0
        decay_mult: 0.0
    }
}

layer {
    top: "res5a_branch2a"
    bottom: "res5a_branch2a"
    name: "res5a_branch2a_relu"
    type: "ReLU"
}

layer {
    bottom: "res5a_branch2a"
    top: "res5a_branch2b"
    name: "res5a_branch2b"
    type: "Convolution"
    convolution_param {
        num_output: 512
        kernel_size: 3
        pad: 2
        dilation: 2
        stride: 1
        bias_term: false
    }
    param {
        lr_mult: 1.0
    }
}

layer {
    bottom: "res5a_branch2b"
    top: "res5a_branch2b"
    name: "bn5a_branch2b"
    type: "BatchNorm"
    batch_norm_param {
        use_global_stats: true
    }
    param {
        lr_mult: 0.0
        decay_mult: 0.0
    }
    param {
        lr_mult: 0.0
        decay_mult: 0.0
    }
    param {
        lr_mult: 0.0
        decay_mult: 0.0
    }
}

layer {
    bottom: "res5a_branch2b"
    top: "res5a_branch2b"
    name: "scale5a_branch2b"
    type: "Scale"
    scale_param {
        bias_term: true
    }
    param {
        lr_mult: 0.0
        decay_mult: 0.0
    }
    param {
        lr_mult: 0.0
        decay_mult: 0.0
    }
}

layer {
    top: "res5a_branch2b"
    bottom: "res5a_branch2b"
    name: "res5a_branch2b_relu"
    type: "ReLU"
}

layer {
    bottom: "res5a_branch2b"
    top: "res5a_branch2c"
    name: "res5a_branch2c"
    type: "Convolution"
    convolution_param {
        num_output: 2048
        kernel_size: 1
        pad: 0
        stride: 1
        bias_term: false
    }
    param {
        lr_mult: 1.0
    }
}

layer {
    bottom: "res5a_branch2c"
    top: "res5a_branch2c"
    name: "bn5a_branch2c"
    type: "BatchNorm"
    batch_norm_param {
        use_global_stats: true
    }
    param {
        lr_mult: 0.0
        decay_mult: 0.0
    }
    param {
        lr_mult: 0.0
        decay_mult: 0.0
    }
    param {
        lr_mult: 0.0
        decay_mult: 0.0
    }
}

layer {
    bottom: "res5a_branch2c"
    top: "res5a_branch2c"
    name: "scale5a_branch2c"
    type: "Scale"
    scale_param {
        bias_term: true
    }
    param {
        lr_mult: 0.0
        decay_mult: 0.0
    }
    param {
        lr_mult: 0.0
        decay_mult: 0.0
    }
}

layer {
    bottom: "res5a_branch1"
    bottom: "res5a_branch2c"
    top: "res5a"
    name: "res5a"
    type: "Eltwise"
}

layer {
    bottom: "res5a"
    top: "res5a"
    name: "res5a_relu"
    type: "ReLU"
}

layer {
    bottom: "res5a"
    top: "res5b_branch2a"
    name: "res5b_branch2a"
    type: "Convolution"
    convolution_param {
        num_output: 512
        kernel_size: 1
        pad: 0
        stride: 1
        bias_term: false
    }
    param {
        lr_mult: 1.0
    }
}

layer {
    bottom: "res5b_branch2a"
    top: "res5b_branch2a"
    name: "bn5b_branch2a"
    type: "BatchNorm"
    batch_norm_param {
        use_global_stats: true
    }
    param {
        lr_mult: 0.0
        decay_mult: 0.0
    }
    param {
        lr_mult: 0.0
        decay_mult: 0.0
    }
    param {
        lr_mult: 0.0
        decay_mult: 0.0
    }
}

layer {
    bottom: "res5b_branch2a"
    top: "res5b_branch2a"
    name: "scale5b_branch2a"
    type: "Scale"
    scale_param {
        bias_term: true
    }
    param {
        lr_mult: 0.0
        decay_mult: 0.0
    }
    param {
        lr_mult: 0.0
        decay_mult: 0.0
    }
}

layer {
    top: "res5b_branch2a"
    bottom: "res5b_branch2a"
    name: "res5b_branch2a_relu"
    type: "ReLU"
}

layer {
    bottom: "res5b_branch2a"
    top: "res5b_branch2b"
    name: "res5b_branch2b"
    type: "Convolution"
    convolution_param {
        num_output: 512
        kernel_size: 3
        pad: 2
        dilation: 2
        stride: 1
        bias_term: false
    }
    param {
        lr_mult: 1.0
    }
}

layer {
    bottom: "res5b_branch2b"
    top: "res5b_branch2b"
    name: "bn5b_branch2b"
    type: "BatchNorm"
    batch_norm_param {
        use_global_stats: true
    }
    param {
        lr_mult: 0.0
        decay_mult: 0.0
    }
    param {
        lr_mult: 0.0
        decay_mult: 0.0
    }
    param {
        lr_mult: 0.0
        decay_mult: 0.0
    }
}

layer {
    bottom: "res5b_branch2b"
    top: "res5b_branch2b"
    name: "scale5b_branch2b"
    type: "Scale"
    scale_param {
        bias_term: true
    }
    param {
        lr_mult: 0.0
        decay_mult: 0.0
    }
    param {
        lr_mult: 0.0
        decay_mult: 0.0
    }
}

layer {
    top: "res5b_branch2b"
    bottom: "res5b_branch2b"
    name: "res5b_branch2b_relu"
    type: "ReLU"
}

layer {
    bottom: "res5b_branch2b"
    top: "res5b_branch2c"
    name: "res5b_branch2c"
    type: "Convolution"
    convolution_param {
        num_output: 2048
        kernel_size: 1
        pad: 0
        stride: 1
        bias_term: false
    }
    param {
        lr_mult: 1.0
    }
}

layer {
    bottom: "res5b_branch2c"
    top: "res5b_branch2c"
    name: "bn5b_branch2c"
    type: "BatchNorm"
    batch_norm_param {
        use_global_stats: true
    }
    param {
        lr_mult: 0.0
        decay_mult: 0.0
    }
    param {
        lr_mult: 0.0
        decay_mult: 0.0
    }
    param {
        lr_mult: 0.0
        decay_mult: 0.0
    }
}

layer {
    bottom: "res5b_branch2c"
    top: "res5b_branch2c"
    name: "scale5b_branch2c"
    type: "Scale"
    scale_param {
        bias_term: true
    }
    param {
        lr_mult: 0.0
        decay_mult: 0.0
    }
    param {
        lr_mult: 0.0
        decay_mult: 0.0
    }
}

layer {
    bottom: "res5a"
    bottom: "res5b_branch2c"
    top: "res5b"
    name: "res5b"
    type: "Eltwise"
}

layer {
    bottom: "res5b"
    top: "res5b"
    name: "res5b_relu"
    type: "ReLU"
}

layer {
    bottom: "res5b"
    top: "res5c_branch2a"
    name: "res5c_branch2a"
    type: "Convolution"
    convolution_param {
        num_output: 512
        kernel_size: 1
        pad: 0
        stride: 1
        bias_term: false
    }
    param {
        lr_mult: 1.0
    }
}

layer {
    bottom: "res5c_branch2a"
    top: "res5c_branch2a"
    name: "bn5c_branch2a"
    type: "BatchNorm"
    batch_norm_param {
        use_global_stats: true
    }
    param {
        lr_mult: 0.0
        decay_mult: 0.0
    }
    param {
        lr_mult: 0.0
        decay_mult: 0.0
    }
    param {
        lr_mult: 0.0
        decay_mult: 0.0
    }
}

layer {
    bottom: "res5c_branch2a"
    top: "res5c_branch2a"
    name: "scale5c_branch2a"
    type: "Scale"
    scale_param {
        bias_term: true
    }
    param {
        lr_mult: 0.0
        decay_mult: 0.0
    }
    param {
        lr_mult: 0.0
        decay_mult: 0.0
    }
}

layer {
    top: "res5c_branch2a"
    bottom: "res5c_branch2a"
    name: "res5c_branch2a_relu"
    type: "ReLU"
}

layer {
    bottom: "res5c_branch2a"
    top: "res5c_branch2b"
    name: "res5c_branch2b"
    type: "Convolution"
    convolution_param {
        num_output: 512
        kernel_size: 3
        pad: 2
        dilation: 2
        stride: 1
        bias_term: false
    }
    param {
        lr_mult: 1.0
    }
}

layer {
    bottom: "res5c_branch2b"
    top: "res5c_branch2b"
    name: "bn5c_branch2b"
    type: "BatchNorm"
    batch_norm_param {
        use_global_stats: true
    }
    param {
        lr_mult: 0.0
        decay_mult: 0.0
    }
    param {
        lr_mult: 0.0
        decay_mult: 0.0
    }
    param {
        lr_mult: 0.0
        decay_mult: 0.0
    }
}

layer {
    bottom: "res5c_branch2b"
    top: "res5c_branch2b"
    name: "scale5c_branch2b"
    type: "Scale"
    scale_param {
        bias_term: true
    }
    param {
        lr_mult: 0.0
        decay_mult: 0.0
    }
    param {
        lr_mult: 0.0
        decay_mult: 0.0
    }
}

layer {
    top: "res5c_branch2b"
    bottom: "res5c_branch2b"
    name: "res5c_branch2b_relu"
    type: "ReLU"
}

layer {
    bottom: "res5c_branch2b"
    top: "res5c_branch2c"
    name: "res5c_branch2c"
    type: "Convolution"
    convolution_param {
        num_output: 2048
        kernel_size: 1
        pad: 0
        stride: 1
        bias_term: false
    }
    param {
        lr_mult: 1.0
    }
}

layer {
    bottom: "res5c_branch2c"
    top: "res5c_branch2c"
    name: "bn5c_branch2c"
    type: "BatchNorm"
    batch_norm_param {
        use_global_stats: true
    }
    param {
        lr_mult: 0.0
        decay_mult: 0.0
    }
    param {
        lr_mult: 0.0
        decay_mult: 0.0
    }
    param {
        lr_mult: 0.0
        decay_mult: 0.0
    }
}

layer {
    bottom: "res5c_branch2c"
    top: "res5c_branch2c"
    name: "scale5c_branch2c"
    type: "Scale"
    scale_param {
        bias_term: true
    }
    param {
        lr_mult: 0.0
        decay_mult: 0.0
    }
    param {
        lr_mult: 0.0
        decay_mult: 0.0
    }
}

layer {
    bottom: "res5b"
    bottom: "res5c_branch2c"
    top: "res5c"
    name: "res5c"
    type: "Eltwise"
}

layer {
    bottom: "res5c"
    top: "res5c"
    name: "res5c_relu"
    type: "ReLU"
}

###DSN conv 6###
layer { name: 'conv1-dsn6' type: "Convolution" bottom: 'res5c' top: 'conv1-dsn6'
  param { lr_mult: 1 decay_mult: 1 } param { lr_mult: 2 decay_mult: 0}
  convolution_param { engine: CAFFE num_output: 512 pad: 3 kernel_size: 7 
  weight_filler { type: "gaussian" std: 0.01 } bias_filler { type: "constant" value: 0 } } }
layer { bottom: 'conv1-dsn6' top: 'conv1-dsn6' name: 'relu1-dsn6' type: "ReLU" }
layer { name: 'conv2-dsn6' type: "Convolution" bottom: 'conv1-dsn6' top: 'conv2-dsn6'
  param { lr_mult: 1 decay_mult: 1 } param { lr_mult: 2 decay_mult: 0}
  convolution_param { engine: CAFFE num_output: 512 pad: 3 kernel_size: 7 
  weight_filler { type: "gaussian" std: 0.01 } bias_filler { type: "constant" value: 0 } } }
layer { bottom: 'conv2-dsn6' top: 'conv2-dsn6' name: 'relu2-dsn6' type: "ReLU" }
layer { name: 'conv3-dsn6' type: "Convolution" bottom: 'conv2-dsn6' top: 'conv3-dsn6'
  param { lr_mult: 0.1 decay_mult: 1 } param { lr_mult: 0.2 decay_mult: 0 }
  convolution_param { engine: CAFFE num_output: 1 kernel_size: 1
  weight_filler { type: "gaussian" std: 0.01 } bias_filler { type: "constant" value: 0 } } }
layer { type: "Deconvolution" name: 'upsample32_in_dsn6' bottom: 'conv3-dsn6' top: 'score-dsn6-up'
  param { lr_mult: 0 decay_mult: 1 } param { lr_mult: 0 decay_mult: 0}
  convolution_param { kernel_size: 64 stride: 32 num_output: 1 } }
layer { type: "Crop" name: 'crop' bottom: 'score-dsn6-up' bottom: 'data' top: 'upscore-dsn6' }
layer { type: "SigmoidCrossEntropyLoss" bottom: "upscore-dsn6" bottom: "label" top: "loss-dsn6"
  name: "loss-dsn6" include { phase: TRAIN } loss_weight: 1 }
layer { type: "Sigmoid" name: "sigmoid-dsn6" bottom: "upscore-dsn6" top: "sigmoid-dsn6" include { phase: TEST} }

###DSN conv 5###
layer { name: 'conv1-dsn5' type: "Convolution" bottom: 'res4b22' top: 'conv1-dsn5'
  param { lr_mult: 1 decay_mult: 1 } param { lr_mult: 2 decay_mult: 0}
  convolution_param { engine: CAFFE num_output: 512 pad: 2 kernel_size: 5
  weight_filler { type: "gaussian" std: 0.01 } bias_filler { type: "constant" value: 0 } } }
layer { bottom: 'conv1-dsn5' top: 'conv1-dsn5' name: 'relu1-dsn5' type: "ReLU" }
layer { name: 'conv2-dsn5' type: "Convolution" bottom: 'conv1-dsn5' top: 'conv2-dsn5'
  param { lr_mult: 1 decay_mult: 1 } param { lr_mult: 2 decay_mult: 0}
  convolution_param { engine: CAFFE num_output: 512 pad: 2 kernel_size: 5
  weight_filler { type: "gaussian" std: 0.01 } bias_filler { type: "constant" value: 0 } } }
layer { bottom: 'conv2-dsn5' top: 'conv2-dsn5' name: 'relu2-dsn5' type: "ReLU" }
layer { name: 'conv3-dsn5' type: "Convolution" bottom: 'conv2-dsn5' top: 'conv3-dsn5'
  param { lr_mult: 0.1 decay_mult: 1 } param { lr_mult: 0.2 decay_mult: 0}
  convolution_param { engine: CAFFE num_output: 1 kernel_size: 1
  weight_filler { type: "gaussian" std: 0.01 } bias_filler { type: "constant" value: 0 } } }
layer { type: "Deconvolution" name: 'upsample16_in_dsn5' bottom: 'conv3-dsn5' top: 'score-dsn5-up'
  param { lr_mult: 0 decay_mult: 1 } param { lr_mult: 0 decay_mult: 0}
  convolution_param { kernel_size: 32 stride: 16 num_output: 1 } }
layer { type: "Crop" name: 'crop' bottom: 'score-dsn5-up' bottom: 'data' top: 'upscore-dsn5' }
layer { type: "SigmoidCrossEntropyLoss" bottom: "upscore-dsn5" bottom: "label" top: "loss-dsn5"
  name: "loss-dsn5" include { phase: TRAIN } loss_weight: 1 }
layer { type: "Sigmoid" name: "sigmoid-dsn5" bottom: "upscore-dsn5" top: "sigmoid-dsn5" include { phase: TEST} }

###DSN conv 4###
layer { name: 'conv1-dsn4' type: "Convolution" bottom: 'res3b3' top: 'conv1-dsn4'
  param { lr_mult: 1 decay_mult: 1 } param { lr_mult: 2 decay_mult: 0}
  convolution_param { engine: CAFFE num_output: 256 pad: 2 kernel_size: 5 
  weight_filler { type: "gaussian" std: 0.01 } bias_filler { type: "constant" value: 0 } } }
layer { bottom: 'conv1-dsn4' top: 'conv1-dsn4' name: 'relu1-dsn4' type: "ReLU" }
layer { name: 'conv2-dsn4' type: "Convolution" bottom: 'conv1-dsn4' top: 'conv2-dsn4'
  param { lr_mult: 1 decay_mult: 1 } param { lr_mult: 2 decay_mult: 0}
  convolution_param { engine: CAFFE num_output: 256 pad: 2 kernel_size: 5 
  weight_filler { type: "gaussian" std: 0.01 } bias_filler { type: "constant" value: 0 } } }
layer { bottom: 'conv2-dsn4' top: 'conv2-dsn4' name: 'relu2-dsn4' type: "ReLU" }
layer { name: 'conv3-dsn4' type: "Convolution" bottom: 'conv2-dsn4' top: 'conv3-dsn4'
  param { lr_mult: 0.1 decay_mult: 1 } param { lr_mult: 0.2 decay_mult: 0}
  convolution_param { engine: CAFFE num_output: 1 kernel_size: 1
  weight_filler { type: "gaussian" std: 0.01 } bias_filler { type: "constant" value: 0 } } }
layer { type: "Deconvolution" name: 'upsample4_dsn6' bottom: 'conv3-dsn6' top: 'score-dsn6-up-4'
  param { lr_mult: 0 decay_mult: 1 } param { lr_mult: 0 decay_mult: 0}
  convolution_param { kernel_size: 8 stride: 4 num_output: 1 } }
layer { type: "Crop" name: 'crop' bottom: 'score-dsn6-up-4' bottom: 'conv3-dsn4' top: 'upscore-dsn6-4' }
layer { type: "Deconvolution" name: 'upsample2_dsn5' bottom: 'conv3-dsn5' top: 'score-dsn5-up-4'
  param { lr_mult: 0 decay_mult: 1 } param { lr_mult: 0 decay_mult: 0}
  convolution_param { kernel_size: 4 stride: 2 num_output: 1 } }
layer { type: "Crop" name: 'crop' bottom: 'score-dsn5-up-4' bottom: 'conv3-dsn4' top: 'upscore-dsn5-4' }
layer { name: "concat-dsn4" bottom: "conv3-dsn4"  bottom: "upscore-dsn6-4" bottom: "upscore-dsn5-4" 
  top: "concat-dsn4" type: "Concat" concat_param { concat_dim: 1} }
layer { name: 'conv4-dsn4' type: "Convolution" bottom: 'concat-dsn4' top: 'conv4-dsn4'
  param { lr_mult: 0.1 decay_mult: 1 } param { lr_mult: 0.2 decay_mult: 0 }
  convolution_param { engine: CAFFE num_output: 1 kernel_size: 1
  weight_filler { type: "gaussian" std: 0.01 } bias_filler { type: "constant" value: 0 } } }
layer { type: "Deconvolution" name: 'upsample8_in_dsn4' bottom: 'conv4-dsn4' top: 'score-dsn4-up'
  param { lr_mult: 0 decay_mult: 1 } param { lr_mult: 0 decay_mult: 0}
  convolution_param { kernel_size: 16 stride: 8 num_output: 1 } }
layer { type: "Crop" name: 'crop' bottom: 'score-dsn4-up' bottom: 'data' top: 'upscore-dsn4' }
layer { type: "SigmoidCrossEntropyLoss" bottom: "upscore-dsn4" bottom: "label" top: "loss-dsn4"
  name: "loss-dsn4" include { phase: TRAIN } loss_weight: 1 }
layer { type: "Sigmoid" name: "sigmoid-dsn4" bottom: "upscore-dsn4" top: "sigmoid-dsn4" include { phase: TEST} }

### DSN conv 3 ###
layer { name: 'conv1-dsn3' type: "Convolution" bottom: 'res2c' top: 'conv1-dsn3'
  param { lr_mult: 1 decay_mult: 1 } param { lr_mult: 2 decay_mult: 0}
  convolution_param { engine: CAFFE num_output: 256 pad: 2 kernel_size: 5 
  weight_filler { type: "gaussian" std: 0.01 } bias_filler { type: "constant" value: 0 } } }
layer { bottom: 'conv1-dsn3' top: 'conv1-dsn3' name: 'relu1-dsn3' type: "ReLU" }
layer { name: 'conv2-dsn3' type: "Convolution" bottom: 'conv1-dsn3' top: 'conv2-dsn3'
  param { lr_mult: 1 decay_mult: 1 } param { lr_mult: 2 decay_mult: 0}
  convolution_param { engine: CAFFE num_output: 256 pad: 2 kernel_size: 5 
  weight_filler { type: "gaussian" std: 0.01 } bias_filler { type: "constant" value: 0 } } }
layer { bottom: 'conv2-dsn3' top: 'conv2-dsn3' name: 'relu2-dsn3' type: "ReLU" }
layer { name: 'conv3-dsn3' type: "Convolution" bottom: 'conv2-dsn3' top: 'conv3-dsn3'
  param { lr_mult: 0.1 decay_mult: 1 } param { lr_mult: 0.2 decay_mult: 0}
  convolution_param { engine: CAFFE num_output: 1 kernel_size: 1
  weight_filler { type: "gaussian" std: 0.01 } bias_filler { type: "constant" value: 0 } } }
layer { type: "Deconvolution" name: 'upsample8_dsn6' bottom: 'conv3-dsn6' top: 'score-dsn6-up-3'
  param { lr_mult: 0 decay_mult: 1 } param { lr_mult: 0 decay_mult: 0}
  convolution_param { kernel_size: 16 stride: 8 num_output: 1 } }
layer { type: "Crop" name: 'crop' bottom: 'score-dsn6-up-3' bottom: 'conv3-dsn3' top: 'upscore-dsn6-3' }
layer { type: "Deconvolution" name: 'upsample4_dsn5' bottom: 'conv3-dsn5' top: 'score-dsn5-up-3'
  param { lr_mult: 0 decay_mult: 1 } param { lr_mult: 0 decay_mult: 0}
  convolution_param { kernel_size: 8 stride: 4 num_output: 1 } }
layer { type: "Crop" name: 'crop' bottom: 'score-dsn5-up-3' bottom: 'conv3-dsn3' top: 'upscore-dsn5-3' }
layer { name: "concat-dsn3" bottom: "conv3-dsn3"  bottom: "upscore-dsn6-3" bottom: "upscore-dsn5-3" 
  top: "concat-dsn3" type: "Concat" concat_param { concat_dim: 1} }
layer { name: 'conv4-dsn3' type: "Convolution" bottom: 'concat-dsn3' top: 'conv4-dsn3'
  param { lr_mult: 0.1 decay_mult: 1 } param { lr_mult: 0.2 decay_mult: 0 }
  convolution_param { engine: CAFFE num_output: 1 kernel_size: 1
  weight_filler { type: "gaussian" std: 0.01 } bias_filler { type: "constant" value: 0 } } }
layer { type: "Deconvolution" name: 'upsample4_in_dsn3' bottom: 'conv4-dsn3' top: 'score-dsn3-up'
  param { lr_mult: 0 decay_mult: 1 } param { lr_mult: 0 decay_mult: 0}
  convolution_param { kernel_size: 8 stride: 4 num_output: 1 } }
layer { type: "Crop" name: 'crop' bottom: 'score-dsn3-up' bottom: 'data' top: 'upscore-dsn3' }
layer { type: "SigmoidCrossEntropyLoss" bottom: "upscore-dsn3" bottom: "label" top: "loss-dsn3"
  name: "loss-dsn3" include { phase: TRAIN } loss_weight: 1 }
layer { type: "Sigmoid" name: "sigmoid-dsn3" bottom: "upscore-dsn3" top: "sigmoid-dsn3" include { phase: TEST} }

### DSN conv 2 ###
layer { name: 'conv1-dsn2' type: "Convolution" bottom: 'conv1' top: 'conv1-dsn2'
  param { lr_mult: 1 decay_mult: 1 } param { lr_mult: 2 decay_mult: 0}
  convolution_param { engine: CAFFE num_output: 128 pad: 1 kernel_size: 3 
  weight_filler { type: "gaussian" std: 0.01 } bias_filler { type: "constant" value: 0 } } }
layer { bottom: 'conv1-dsn2' top: 'conv1-dsn2' name: 'relu1-dsn2' type: "ReLU" }
layer { name: 'conv2-dsn2' type: "Convolution" bottom: 'conv1-dsn2' top: 'conv2-dsn2'
  param { lr_mult: 1 decay_mult: 1 } param { lr_mult: 2 decay_mult: 0}
  convolution_param { engine: CAFFE num_output: 128 pad: 1 kernel_size: 3
  weight_filler { type: "gaussian" std: 0.01 } bias_filler { type: "constant" value: 0 } } }
layer { bottom: 'conv2-dsn2' top: 'conv2-dsn2' name: 'relu2-dsn2' type: "ReLU" }
layer { name: 'conv3-dsn2' type: "Convolution" bottom: 'conv2-dsn2' top: 'conv3-dsn2'
  param { lr_mult: 0.1 decay_mult: 1 } param { lr_mult: 0.2 decay_mult: 0}
  convolution_param { engine: CAFFE num_output: 1 kernel_size: 1
  weight_filler { type: "gaussian" std: 0.01 } bias_filler { type: "constant" value: 0 } } }
layer { type: "Deconvolution" name: 'upsample16_dsn6' bottom: 'conv3-dsn6' top: 'score-dsn6-up-2'
  param { lr_mult: 0 decay_mult: 1 } param { lr_mult: 0 decay_mult: 0}
  convolution_param { kernel_size: 32 stride: 16 num_output: 1 } }
layer { type: "Crop" name: 'crop' bottom: 'score-dsn6-up-2' bottom: 'conv3-dsn2' top: 'upscore-dsn6-2' }
layer { type: "Deconvolution" name: 'upsample8_dsn5' bottom: 'conv3-dsn5' top: 'score-dsn5-up-2'
  param { lr_mult: 0 decay_mult: 1 } param { lr_mult: 0 decay_mult: 0}
  convolution_param { kernel_size: 16 stride: 8 num_output: 1 } }
layer { type: "Crop" name: 'crop' bottom: 'score-dsn5-up-2' bottom: 'conv3-dsn2' top: 'upscore-dsn5-2' }
layer { type: "Deconvolution" name: 'upsample4_dsn4' bottom: 'conv4-dsn4' top: 'score-dsn4-up-2'
  param { lr_mult: 0 decay_mult: 1 } param { lr_mult: 0 decay_mult: 0}
  convolution_param { kernel_size: 8 stride: 4 num_output: 1 } }
layer { type: "Crop" name: 'crop' bottom: 'score-dsn4-up-2' bottom: 'conv3-dsn2' top: 'upscore-dsn4-2' }
layer { type: "Deconvolution" name: 'upsample2_dsn3' bottom: 'conv4-dsn3' top: 'score-dsn3-up-2'
  param { lr_mult: 0 decay_mult: 1 } param { lr_mult: 0 decay_mult: 0}
  convolution_param { kernel_size: 4 stride: 2 num_output: 1 } }
layer { type: "Crop" name: 'crop' bottom: 'score-dsn3-up-2' bottom: 'conv3-dsn2' top: 'upscore-dsn3-2' }
layer { name: "concat-dsn2" bottom: "conv3-dsn2" bottom: "upscore-dsn5-2" bottom: "upscore-dsn4-2" bottom: "upscore-dsn6-2"
  bottom: "upscore-dsn3-2" top: "concat-dsn2" type: "Concat" concat_param { concat_dim: 1} }
layer { name: 'conv4-dsn2' type: "Convolution" bottom: 'concat-dsn2' top: 'conv4-dsn2'
  param { lr_mult: 0.1 decay_mult: 1 } param { lr_mult: 0.2 decay_mult: 0 }
  convolution_param { engine: CAFFE num_output: 1 kernel_size: 1
  weight_filler { type: "gaussian" std: 0.01 } bias_filler { type: "constant" value: 0 } } }
layer { type: "Deconvolution" name: 'upsample2_in_dsn2' bottom: 'conv4-dsn2' top: 'score-dsn2-up'
  param { lr_mult: 0 decay_mult: 1 } param { lr_mult: 0 decay_mult: 0}
  convolution_param { kernel_size: 4 stride: 2 num_output: 1 } }
layer { type: "Crop" name: 'crop' bottom: 'score-dsn2-up' bottom: 'data' top: 'upscore-dsn2' }
layer { type: "SigmoidCrossEntropyLoss" bottom: "upscore-dsn2" bottom: "label" top: "loss-dsn2"
  name: "loss-dsn2" include { phase: TRAIN } loss_weight: 1 }
layer { type: "Sigmoid" name: "sigmoid-dsn2" bottom: "upscore-dsn2" top: "sigmoid-dsn2" include { phase: TEST} }

### Concat and multiscale weight layer ###
layer { name: "concat" bottom: "upscore-dsn6"  bottom: "upscore-dsn2" bottom: "upscore-dsn3" bottom: "upscore-dsn4" 
  bottom: "upscore-dsn5" top: "concat-upscore" type: "Concat" concat_param { concat_dim: 1 } }
layer { name: 'new-score-weighting' type: "Convolution" bottom: 'concat-upscore' top: 'upscore-fuse'
  param { lr_mult: 0.1 decay_mult: 1 } param { lr_mult: 0.2 decay_mult: 0}
  convolution_param { engine: CAFFE num_output: 1 kernel_size: 1 weight_filler {type: "constant" value: 0.2 } } }
layer { type: "SigmoidCrossEntropyLoss" bottom: "upscore-fuse" bottom: "label" top: "loss-fuse"
  name: "loss-fuse" include { phase: TRAIN } loss_weight: 1 }
layer { type: "Sigmoid" name: "sigmoid-fuse" bottom: "upscore-fuse" top: "sigmoid-fuse" include { phase: TEST } }
